model/trained_net.pkl (torch, 41239 bytes, 6 tensors)

weight f4 [128, 8]
00000000: 54a0 cc3d 39ac 21bf d803 eebf 3931 343e
00000010: a8a7 86be cef5 dc3c d2ff 213f 5802 2d3f
00000020: b880 233e 52f7 eebe 53dc 013e 1b01 35bf
00000030: e265 10bf 8e0a 84be 2fc1 ee3e 8925 723f
00000040: eaab 28be e3c0 bd3c 66eb b73d 0b3f e4bd
00000050: 51c4 5ac0 43b0 353d d8ff 8ebf a257 06be
00000060: 08d2 d93e 07d0 afbf 513b 823e b4a5 14bf
00000070: b14e 39bf df86 afbd 34e4 523d 60cf 943e
00000080: 41c0 18bf 7789 40bf fa7a e0bf e72f 08be
00000090: 1d05 36bf 5680 ddbe e411 fa3e dfd0 38c0
000000a0: aaa2 4b3e d169 22bf df49 90be 847a 8ebf
000000b0: 528a 17bf 46bf 24bf 7d95 5cbf 8ea9 a93e
000000c0: 568f 3b3d ccf6 353f 1cf7 b3be 280e 0a40
000000d0: cb30 48be 22ff 84be 23e3 6fbe 25ec 87bf
000000e0: 861a 94bd 866b 05c0 1e48 aabf 5893 6c40
000000f0: a045 16be ae5b 323e 38b2 9fbc df8c bf3b
00000100: 825a aa3e a924 cdbf 9f24 aa3f a52b 23be
00000110: 7976 39bf d5f3 e8be 3630 253d ac4e c83e
00000120: fe96 fb3e f94a c6be ddb6 6dbe 3ec8 d13e
00000130: 2021 91bf ec28 3fbf 3ecf 2c3b 77f8 b1bf
00000140: 4a35 123f 2216 efbe 662c a2be 6020 a03d
00000150: 7e2b 723f ac2a 03bf e025 90bf f0be 223f
00000160: 480b 8c3f f10e 043f 3865 46bf bb47 2fbe
00000170: 4a2d 19bf 33e7 0a3f c99f a23e ea89 4fbe
00000180: 4c35 a9bd 8a3d a2bf 8286 ee3d f759 263f
00000190: 9a68 8fbf c17b 38bf c780 183f ec57 f93b
000001a0: 9ea6 283f 2e36 1ebf d8e4 ab3e 9be3 acbe
000001b0: 0b2f ee3d 143e 1f3e 3324 b6bd 23d9 13be
000001c0: 1de8 be3e b2fc da3f d864 7abf 69ea 803e
000001d0: 34e8 743e 57de a63d 95c8 823e 4986 b03b
000001e0: ca29 743d 211d 86bf 564c 1fbf 6bc8 4e3c
000001f0: 34bf 8ebf ed9c aa3e 7988 713d 1037 02bd
00000200: cbf2 92bd 134f 0cbf 0b6d 4fbf 3add f03f
00000210: 0398 093f 68da 87bd 2290 953d fbc0 033e
00000220: fb4d c33e 4923 363f 3b71 263d 50c4 a5be
00000230: 08f6 193e e829 3fbe 777a 953e 788b 04be
00000240: d1a3 c3be f877 efbe f0ee bfbf 0a26 10bf
00000250: 6d11 9d3e 302c 3c3f 0cda 6cbf 6142 953e
00000260: b30e e03e afe8 cdbc 5e09 bdbe 02fd 243e
00000270: ab04 f53e 34c6 dd3e 6bf8 b4bf 3822 373f
00000280: 2941 c43e 7285 34be 52ad 39be 03b2 83bc
00000290: d2e8 193f 395e 043e a322 9abc 214d 5a3f
000002a0: 3f73 103f b455 5b3c 2d1e c23e 6f7d 92bc
000002b0: 3426 d63e 393a 22bf 3339 493f f405 6dbf
000002c0: 0f61 603f 9860 a7be 2783 a0be d41c c7be
000002d0: 7ecf b43f efc5 643f 127c 0dbf 5970 01be
000002e0: 503a adbe 3c07 cfbc 0794 54bd aee8 c83d
000002f0: b096 6c3f 5ed2 603f b7db 223d ea97 acbe
00000300: 484c 24be dbc2 5cbe ac88 70be 9cb6 d2be
00000310: 40ae 6d3f ee78 693e 9740 ee3e 9972 ae3e
00000320: d56d 0ebe a2e7 69be e139 a93d 40a1 b1be
00000330: dd4a 73bf c9ae c33b e5fe e63e 6f10 833d
00000340: b9ee 98be 9325 a33d bec7 2bbf 4430 e0be
00000350: b3c3 a33f 5bdf fd3e b427 483f e81c 373e
00000360: ca27 64bf 0932 bebe 581b 133e 0042 b6bd
00000370: f1cc b23e 7a55 283d 60e1 39bd d5c1 6e3e
00000380: 3733 bf3e 41e4 993f 9037 7dbe 31c9 2cbf
00000390: 1581 44bf 352b 913e 1136 3fbe e420 d6bd
000003a0: 20c1 15bf 0801 10bf aea5 80bf 3980 3fbf
000003b0: f565 513f 1ef7 023f 273e 37bd fa61 56be
000003c0: e70a f83e 16a8 80be 8631 27bf e2ce c6bf
000003d0: 96bd 9abf 8e26 323d 3be4 62bc a4d5 c6ba
000003e0: 1a12 cebe 2dea 89bf 7587 78bf 2425 7abf
000003f0: 0257 35bf 6f93 563e a24f 033f c780 b3bf
0.09991518 -0.63153416 -1.8594923 0.17596902 -0.26299787 0.026972678 0.63280976 0.675817
0.15967071 -0.46673065 0.12681703 -0.7070481 -0.5640546 -0.25789303 0.46631762 0.94588524
-0.1647183 0.023163265 0.089804456 -0.11144837 -3.4182322 0.04435755 -1.1171827 -0.13119367
0.42543054 -1.373536 0.2543588 -0.5806534 -0.723857 -0.085706465 0.051487163 0.29064465
-0.59668356 -0.75209755 -1.753753 -0.13299523 -0.7110155 -0.43261975 0.48841774 -2.8877485
0.1988627 -0.63442713 -0.2818136 -1.1131139 -0.59195435 -0.6435436 -0.861656 0.33137172
0.045790993 0.7107971 -0.35149467 2.157114 -0.19549863 -0.259759 -0.2342649 -1.061894
-0.072316214 -2.0846877 -1.3303258 3.6964931 -0.14674997 0.17417786 -0.019494161 0.0058456506
0.33272177 -1.6026813 1.3292426 -0.15934618 -0.724464 -0.4549853 0.04032918 0.39122522
0.49138635 -0.38729075 -0.23214288 0.40973085 -1.1338234 -0.74671817 0.0026368643 -1.390395
0.5711256 -0.46696573 -0.31674498 0.07818675 0.94597614 -0.5123699 -1.1261559 0.635726
1.0940943 0.515853 -0.774982 -0.17117207 -0.5983473 0.5425903 0.3176253 -0.20267454
-0.08262119 -1.267503 0.11646749 0.64981025 -1.1203797 -0.72063833 0.595715 0.007609358
0.6587924 -0.6180142 0.3357303 -0.337674 0.116300665 0.15551025 -0.08893623 -0.144383
0.37286463 1.7108366 -0.97810125 0.2517884 0.23916703 0.08147877 0.25543657 0.005387102
0.059610166 -1.047764 -0.62225854 0.012621026 -1.11521 0.3332285 0.05896804 -0.031790793
-0.07175215 -0.5480816 -0.8102576 1.8817513 0.53747576 -0.066334546 0.07302882 0.12866585
0.38145432 0.7114759 0.04063533 -0.32376337 0.1503526 -0.1866833 0.29194996 -0.12943828
-0.3821092 -0.46771216 -1.4994793 -0.56308043 0.30677357 0.73504925 -0.92520213 0.29152206
0.43761215 -0.025135366 -0.3692121 0.1611214 0.47855124 0.4331528 -1.4138311 0.7153659
0.38330963 -0.1762903 -0.18132523 -0.016076094 0.6012088 0.12926568 -0.018815344 0.8527394
0.5642585 0.013387132 0.37913647 -0.017882077 0.41826022 -0.6337009 0.78602904 -0.9258721
0.876481 -0.32690883 -0.3135006 -0.38889182 1.4125822 0.8936452 -0.5526744 -0.12640513
-0.3383355 -0.025272004 -0.051898982 0.09810005 0.9241743 0.87820995 0.039760318 -0.3370965
-0.16044724 -0.21558706 -0.23489636 -0.41154945 0.9284401 0.22800037 0.46533653 0.34071806
-0.13909085 -0.22842267 0.08262993 -0.34693336 -0.9503611 0.0059717637 0.45116344 0.06399619
-0.2986963 0.07966151 -0.6710166 -0.43786824 1.2794098 0.4958447 0.7818558 0.1788212
-0.89123213 -0.3714755 0.143659 -0.08899307 0.34921983 0.04109714 -0.04538095 0.23316129
0.3734376 1.2022783 -0.24728227 -0.67494494 -0.76759464 0.28353277 -0.18672968 -0.10455492
-0.5849781 -0.56251574 -1.0050561 -0.7480503 0.817962 0.5115832 -0.044737007 -0.20935813
0.48445818 -0.2512824 -0.6530994 -1.5531886 -1.2089107 0.0434938 -0.01384836 -0.0015169871
-0.40248185 -1.077459 -0.9708169 -0.9771292 -0.7083589 0.20954679 0.51293385 -1.4023675

bias f4 [128]
00000000: c038 203e 6970 dfbe 3dd5 81bd 81f4 c8bd
00000010: 64ca 573f 29c5 72bf 9334 bc3f fdf7 a8bc
00000020: cbf4 d3be aa13 013f b406 163f 762e d8bd
00000030: 6696 ff3e 1f1f 7b3f 100e 93be 0390 aa3e
00000040: e244 04bd af96 56bf f669 1f3f e30e 78be
00000050: d928 ef3e 2ab5 c73e baaf c1bf 89f8 853e
00000060: aa5a da3e fb63 ee3e 54a5 ddbe c118 9d3e
00000070: 593e f13e bdbc c0be f6d7 913e 2e8b ac3f
00000080: e9dc d1bd ef02 ad3e 58f2 133e 7df6 5f3d
00000090: b41d 32bf a92f ffbe 1e2b 8e3f a0a7 013f
000000a0: 163b 723e 58cf 1dbf 4b85 5e3f 8a38 033f
000000b0: 058a e03c ddec 713f 77d1 98bc e690 59bf
000000c0: 214d e93e 715f 893d 1d0e 823e 93b8 9a3d
000000d0: c79d bf3e 2ba2 f83e b3e3 aabf 4e07 e63d
000000e0: a2d6 14bf 4273 853d dbfd bfbc a299 ed3e
000000f0: 9c59 91bd 2091 cbb9 87e9 333f b698 323f
00000100: 7d34 523f 9704 053f 2f7d 81bf 0185 7bbe
00000110: 952e c9bd 2bd7 4cbe 5f9f 01bf 6ecf 41bd
00000120: 4634 423f 2bbc d2be 494b 7f3e 62a7 743e
00000130: a2c2 14bd c8e8 ea3e 792a b53e 4cd0 0f3d
00000140: 92cd 6d3d 03a4 1f3e c812 cb3e a301 99be
00000150: 0c69 bc3e 007e 5cbf 3122 2d3f a385 503e
00000160: 7bf3 0abf 9426 073f f024 e6bd b8e8 ac3f
00000170: 4011 ec3b 0c7e a1be 2c08 303f cf69 f9bd
00000180: 51d3 f53e d95b 073f 98c2 2d3f 03ee b5be
00000190: 233f d1bf 7ea6 91bc b63c 623d 51aa 91bf
000001a0: 33b0 323f d94d cfbe 85ce f73c efe8 3c3f
000001b0: 99f6 d03e d743 7c3e 84d8 2fbb d9ed 08bd
000001c0: e8a7 ad3e 79fa 243f dd93 383e 6aba cabd
000001d0: 222c b83e c40a 943f d00f 7bbe a872 643e
000001e0: e086 213f 71da f7be fea3 a5bf 5846 983f
000001f0: 3a3e f23e bd1d b73e 9b9a 523e 72a9 2a3f
0.15646648 -0.4364045 -0.063395 -0.098122604 0.842932 -0.9483209 1.4703544 -0.020626063
-0.413977 0.5042063 0.5860398 -0.10555737 0.49919432 0.9809436 -0.28721666 0.33312997
-0.032292254 -0.83823675 0.6227106 -0.24224429 0.46710852 0.39005405 -1.5131752 0.2616618
0.42647296 0.46560654 -0.43290198 0.30682948 0.4711788 -0.37643996 0.28485078 1.3479974
-0.102472134 0.337913 0.14447916 0.05467843 -0.69576573 -0.4984105 1.1106908 0.506464
0.23655352 -0.61644506 0.8692214 0.51258147 0.027409563 0.9450205 -0.018654568 -0.8498672
0.45566657 0.06707657 0.25401393 0.07554736 0.37425062 0.48561224 -1.3350738 0.11231862
-0.58140004 0.06516124 -0.023436477 0.46406275 -0.0709717 -0.00038827304 0.7027821 0.6976427
0.8211134 0.5196013 -1.0116328 -0.24562456 -0.09823338 -0.20003955 -0.50633806 -0.04731696
0.7586101 -0.41159186 0.24931063 0.23891976 -0.03631843 0.45880723 0.35383967 0.035110757
0.058057375 0.1558991 0.39662766 -0.2988406 0.36798894 -0.8612976 0.67630297 0.20363478
-0.5427777 0.5279324 -0.11237514 1.350852 0.007204205 -0.3154148 0.6876247 -0.121783845
0.48012784 0.52874523 0.6787505 -0.3553315 -1.6347393 -0.017779585 0.05523368 -1.1380101
0.6980011 -0.4048908 0.030249843 0.7379293 0.4081314 0.24635254 -0.0026831934 -0.033429954
0.33917165 0.6444469 0.18025155 -0.09898837 0.3597117 1.1565785 -0.2451775 0.22309363
0.6309643 -0.48408845 -1.2940671 1.1896467 0.473131 0.35764876 0.2056679 0.66664803

weight f4 [64, 128]
00000000: d8cb 9f3e 5d47 353f 092c 423e de21 573f
00000010: 58d4 b0bf 17f3 50bf 5e75 91bf 1095 a73f
00000020: f998 2a3d 0515 85bf ec36 ebbe 59c7 e13e
00000030: 9561 e73d d6a2 52be 9fbd 16be 1625 0cbf
00000040: 31c6 06c0 584e d4be 57bc 0ebe f7ee 9ebe
00000050: 76a1 d63d 1613 cabe de5e 87bf ea53 2d3e
00000060: 1e46 f53e 7542 6bbe 42c7 d93e 04b5 0240
00000070: 2dc5 9fbe 8e67 3f3f 3aa9 243f be6e 9fbe
00000080: 9dc1 603f 06c7 e1be 2eaf 43be f0cd f73e
00000090: 9405 4d3e 4648 8c3f cd7c b3be e39b 31bf
000000a0: 6636 f7be ae8f 563f 46f6 9dbe 5c2a 043f
000000b0: 78e3 923e 3d99 12bf 8b27 a43f af5d b4bf
000000c0: e479 a53f e87a 883f c63b b73f f29c c23d
000000d0: c9de 18bf 88d6 4a3d ba7d 6bbf 835b 84be
000000e0: 8407 5e3d 4aca 20be a1b7 873f 5fcb 98be
000000f0: 9b95 cb3e c4c1 e93e 42f5 2dbe 9aa5 603e
00000100: 4a56 61be 1080 d6be 5eee a9bf 7d23 8bbf
00000110: 37e7 6d3e 42fd 983f 9658 ac3f 1be6 9c3e
00000120: 3506 1d3f 37bf 743e e0b3 533f 35bc 1cbf
00000130: 2b1f 61be 7c41 1f3f 92cf bebe de77 7fbc
00000140: 05fa a5bd 3b74 883f 4370 f1be 248e c6be
00000150: 3a20 14be ba19 bd3e c3d3 313f 82b4 1d40
00000160: 1a8b ec3d da67 cbbe 8285 c83d ecbc 41bf
00000170: 9608 9bbe 5908 36bf 04f2 94bf 6d86 6d3f
00000180: 6671 dabe 44d4 83be 3e24 d83e 1114 543d
00000190: 3d22 51bf 3e5f b9bd 714c d43f cc89 3abe
000001a0: 6385 6cbe 049e da3e 046a 7c3f 8280 c73e
000001b0: 3367 45bd b76d 383f 24c1 5a3f e0ee 613f
000001c0: a1fd 14be b9f4 50bd 5a7a ffbe 0219 e83f
000001d0: 616f 5f3e b1cc ed3f 57b5 1a3f ccf8 103f
000001e0: b69f 9abf 2646 a1be af11 b2bf 507c f83e
000001f0: 1bf3 07bf 1ee9 8c3c 10f5 d0be 2596 fdbd
00000200: a92e 8cbd 05e6 453d 709e 28bd 4680 70bc
00000210: 1100 b6bd 7837 80bd 32f1 dabd 4cd3 44bd
00000220: 3e5f 52bc 039a 88bd 3dfb 30bd cc0b 8b3d
00000230: c365 2ebd 04cb 8f3d 925f df3c 2e91 9bbc
00000240: 065c 33bd 68dd 1ebd 993b 93bd 37c4 c2bd
00000250: 9c8d 843d f3db 4e3c 993d 66bd 191c 4b3d
00000260: c404 ccbc a1e5 2fbc 8feb 753d 6055 9dbd
00000270: c0e2 aebd d9a8 58b9 3392 9b3b 3bd9 5b3d
00000280: 28ec 57bc 2889 ea3c 8cb5 b23d 6764 b7bd
00000290: 2537 df3c 81eb 59bd c1ac a3bd f4a6 bbbd
000002a0: da59 853a f72e 813d ea4c 893d ab29 7f3d
000002b0: b051 aabd 0da5 923b 3887 ed3a b64a c1bb
000002c0: fa6e 0bbd 7c21 89bd ec9f 9cbd bbee 6b3d
000002d0: 95b5 0dbd 36ed 9c3c eb91 443d 7330 9bbd
000002e0: 5cf4 1cbc d462 5d3c 4526 c73c 507f 8ebd
000002f0: a85d 81bd cff5 7ebd d261 803d 12bf 093a
00000300: b912 81bc dd79 2a3d 9b42 b1bd 7516 82bd
00000310: 039a 4dbd 5fce 52bd a1f2 0fbd 5950 8cbc
00000320: ef83 0e3c 5e82 5d3d e89d ff3c c562 b2bd
00000330: 0b6f 1cbd 9b88 debc 375f 9abd c8a2 f1bc
00000340: 8cfa ea3b 27f5 a8bc 4da3 543d 9d8a 3dbb
00000350: 724b c1bd 9f4f 0fbd 671c ec3c f734 d23c
00000360: 05c4 323d 64c5 7cbd 8986 c6bd 99f2 a43c
00000370: 3d29 f93c f560 2bbd 0857 9bbd d860 73bd
00000380: 04ea 903d 735f c339 5868 06bd c787 d8bb
00000390: 4873 90bd 128f 5fbd cd14 44bd a6f9 cf3c
000003a0: 92cb 51bc 65e4 293c 58be 8bbd 48bf 583d
000003b0: 3f67 58bd b06f 61bd 1938 b7bd 171c 04bd
000003c0: 7767 9abc 4f86 1bbd a6ce 5e3d 4247 83bd
000003d0: 7201 70bd 8ef0 813d 8b9f 153d e9a3 683d
000003e0: 41fe 0e3c 6b47 613d 9a02 663d 1aee 9cbd
000003f0: cd3c e4bb eb42 383d 45d7 5b3c 82fd b6bc
0.31210208 0.70812017 0.1896211 0.8403605 -1.3814802 -0.81620926 -1.1363943 1.3092365
0.041649792 -1.039704 -0.4594034 0.44097403 0.11297909 -0.2056993 -0.14720772 -0.5474409
-2.1058466 -0.41466022 -0.13939033 -0.3104169 0.10480015 -0.39467686 -1.0575826 0.16926542
0.47905058 -0.2297457 0.42534834 2.0422983 -0.3120512 0.74767387 0.6432072 -0.31139177
0.8779543 -0.44097155 -0.19109794 0.48399305 0.20021659 1.0959556 -0.35056153 -0.6937849
-0.4828369 0.8381299 -0.30851954 0.51627135 0.2868917 -0.57265073 1.2824568 -1.409109
1.2927823 1.0662508 1.4315116 0.09502591 -0.59714943 0.049521 -0.9198872 -0.25851068
0.054206386 -0.15702167 1.0602914 -0.2984266 0.39762577 0.45655644 -0.1698809 0.21938172
-0.22005573 -0.4189458 -1.3275869 -1.0870205 0.23232733 1.1952288 1.3464534 0.30644307
0.61337596 0.23901068 0.8269634 -0.6122468 -0.21984546 0.62209296 -0.3726774 -0.015592543
-0.08104328 1.0660471 -0.4715596 -0.3878032 -0.14465418 0.3693369 0.6946375 2.4641423
0.11549969 -0.3972767 0.097910896 -0.75678897 -0.30279988 -0.7110649 -1.1636357 0.9278324
-0.4266464 -0.25747883 0.4221515 0.05177695 -0.8169287 -0.09051369 1.6585828 -0.18216628
-0.23097758 0.4269868 0.98599267 0.3896523 -0.04819412 0.7204241 0.8545096 0.8825512
-0.14549877 -0.051014636 -0.49898034 1.8132632 0.21819831 1.8578092 0.6043295 0.56629634
-1.207999 -0.31498832 -1.3911647 0.48532343 -0.53105325 0.017201003 -0.40811968 -0.123821534
-0.06844837 0.048315067 -0.041166723 -0.01467902 -0.088867314 -0.0626058 -0.106905356 -0.04805307
-0.01284009 -0.066700004 -0.04320835 0.067893595 -0.042577516 0.07021144 0.027267251 -0.018990126
-0.043788932 -0.03878537 -0.07189102 -0.09510081 0.06472322 0.012625682 -0.056211088 0.049587343
-0.024904616 -0.0107359 0.0600391 -0.076822996 -0.08539343 -0.00020662266 0.004747653 0.053673964
-0.013178863 0.028629854 0.087260336 -0.08954697 0.027247975 -0.05320311 -0.079919346 -0.09162703
0.0010173873 0.06307786 0.06704123 0.062295597 -0.08316362 0.004475242 0.0018121963 -0.005898799
-0.034041382 -0.0669584 -0.0764769 0.057600718 -0.034597 0.01915608 0.04799072 -0.075776
-0.009579744 0.013512332 0.02431024 -0.06957877 -0.06316692 -0.06224614 0.06268658 0.0005254607
-0.015755998 0.041620124 -0.08655282 -0.063519396 -0.050195705 -0.051466342 -0.0351435 -0.017128156
0.008698448 0.054079406 0.031203225 -0.08710245 -0.038191836 -0.027164748 -0.07537692 -0.029496565
0.007170981 -0.02062471 0.05191355 -0.0028921731 -0.09438218 -0.034988042 0.028822137 0.025660021
0.04364397 -0.061711684 -0.09693629 0.02013521 0.030415172 -0.041840512 -0.07584959 -0.05941853
0.07075885 0.00037264414 -0.032814354 -0.006607983 -0.07053238 -0.0545798 -0.0478714 0.025387596
-0.012804883 0.010369395 -0.068234146 0.052916795 -0.05283284 -0.055038154 -0.08946247 -0.03225335
-0.018848164 -0.037969884 0.054396294 -0.06410076 -0.05859513 0.0634471 0.036529105 0.056796942
0.008727611 0.05499975 0.056154825 -0.07662602 -0.006965256 0.044985693 0.0134180235 -0.022337679

bias f4 [64]
00000000: 6753 16bf e093 e23a f3aa 87bd 5fda 52be
00000010: cfa8 04bf cf07 2a3f f779 1e3f d38e da3e
00000020: 7905 543e cbe8 283f f4bb 0dbf 4409 913e
00000030: 3682 033f 0da5 da3e dfca 223f 6bdd 853c
00000040: 359e a9be 93ea 123f 2a15 68bd 9738 0a3f
00000050: f3b0 123f c3fd 093f 1ecc b13f 79f4 083f
00000060: b371 fa3e c120 a83c 51af 2dbf 615d ad3e
00000070: b175 e03e b9d5 19bc 7d36 883a f2fe f63e
00000080: 4b99 1a3f 0286 163f 6373 27be 7a03 043f
00000090: 747f 033f 8702 e03d 494a 8fbd 54b0 fc3e
000000a0: a870 33bd 238b e93e a669 c63e d535 583b
000000b0: ddca 403f 4f42 0a3f 57b1 3f3e 202a 073f
000000c0: 2dfd 0a3f 22d9 4c3e 57de 4abd a320 82bd
000000d0: 871c cf3e d869 5e3c 8f68 0a3f c032 103f
000000e0: fb5a 523f 5f32 233f 3bf8 0a3f d7fb e63e
000000f0: a005 913c 00e2 1f3f aad3 2c3f 2dca 843e
-0.5872101 0.0017286502 -0.06624403 -0.20591114 -0.5182008 0.66418165 0.61904854 0.4268709
0.20705213 0.65980214 -0.5536492 0.28327382 0.5137056 0.4270405 0.63590807 0.016340932
-0.33128515 0.5738918 -0.05666081 0.539926 0.57301253 0.53902835 1.3890417 0.53498036
0.4891487 0.02052343 -0.67845637 0.33860305 0.4383979 -0.009389334 0.0010392215 0.48241383
0.60390157 0.5879823 -0.1635261 0.51567805 0.51366353 0.10937982 -0.06996591 0.49353278
-0.04380861 0.45613965 0.38752478 0.003299107 0.75309545 0.5400743 0.18719994 0.5279865
0.54292566 0.20004705 -0.049528446 -0.06353881 0.40451452 0.01357504 0.54065794 0.5632744
0.82170075 0.63748735 0.5428502 0.45114014 0.017702878 0.62454224 0.67510474 0.25935498

weight f4 [4, 64]
00000000: 799f 413f b1ec b93c 04c4 49bd 6dfe 833f
00000010: 8b73 7a3f 7229 bfbe c4eb a1be 3372 9ebe
00000020: 4828 c73f c589 96be 5c65 a33f 3953 d4bf
00000030: 71d2 e3be d722 75be 1f56 83be 8a29 52bd
00000040: 8510 2040 cd05 fd3f 2120 153d d6de ccbe
00000050: 4891 d2be 3f24 aebe f706 0f40 1f01 7dbe
00000060: 4518 b3be 45b2 22bd 5e94 993e 88e4 8cbe
00000070: c197 73be 9fb1 9ebd 7743 b1be bcba a0be
00000080: 55fa c6be fcb7 b4be b217 dd3f b9fb 7dbe
00000090: 4077 7dbe 4688 e3bf 1c2a de3d 109a bcbe
000000a0: b669 0540 6dd7 bbbe 627e 3540 6902 493c
000000b0: 6ec5 0f40 153d 44bf ea6c 80bd 8a57 bebe
000000c0: 93ee c5be 7bc0 80be 8218 fa3d 28fd 4abd
000000d0: 2b22 56be 29e3 7840 c43c c0be a9d5 c1be
000000e0: 407e 5dbf 44cf 25be cd52 87be f467 0ac0
000000f0: 7c54 273d d281 a4be dd3c f53f a948 e2bf
00000100: 9b6f 893f 2b5f 6bbb 1b39 82bd d6a9 783f
00000110: 31c6 713f 7b44 cfbe 4dda a9be 3db5 50be
00000120: 4083 0440 579e 0abe 26d6 a63f aecb d4bf
00000130: 979e 81be b9e8 26be 3a29 edbe e0a7 20bd
00000140: 42a1 3140 082f 2240 f497 993d e2d3 3abe
00000150: 80e4 20be 3913 15bf 1d76 1040 f068 8cbe
00000160: 77d6 0abf 27a3 4ebc 2549 853e 0a08 7bbd
00000170: 9094 8ebe 6f15 643d aae1 0fbf 2b7a f2be
00000180: 5430 c1be 45e0 bbbe 5e4f ed3f 0783 91be
00000190: 960a ccbe e7c0 e2bf 9a42 b4bb c48a bbbe
000001a0: a7d7 fc3f 77ef acbe 3cee 2740 9947 733d
000001b0: 254c 0740 bed4 dabe c175 8ebf c2c3 e2be
000001c0: f471 d2be 7f86 143e 26de b8bd 2a15 ab3d
000001d0: e357 83be c91f 7440 1acf 9dbe 9048 8dbe
000001e0: ab22 52bf 7505 70be a2fb 76be ec8f 0cc0
000001f0: 082e 7ebd fa73 d9be 79bc ec3f bb6f 01c0
00000200: 94df 4b3f 1b92 de3d f801 64bd d3e4 7f3f
00000210: 384e 933f 46fb acbe ee2f 73be 0667 b1be
00000220: 8ad7 0940 2d75 1abe 281d 7f3f 504d f0bf
00000230: ac2e 7cbe 0ba3 a1be 7fb6 c2be 0d9e c93d
00000240: d942 3940 7ec8 0f40 2109 923d 0a5d d2be
00000250: 4399 ccbe ca88 cdbe 2b48 1a40 2792 76be
00000260: 6449 74be 8939 c53b 168c 033f 0470 cbbf
00000270: 5493 54be 463c 753d 9f09 ed3e 301d bfbe
00000280: eb2a 49be 63de 0cbe c4bc e43f 1076 8ebe
00000290: 5fc6 9bbe 2e69 b3bf 0266 b7bd e2e5 a7be
000002a0: c15b 0740 ef30 7abe 5813 f13f ed44 a0bd
000002b0: 596d 0840 d4f6 3bbf a5b8 32bf ffe2 35be
000002c0: 1550 8dbe 8b46 2ebf a0ce 6e3d 3524 e63d
000002d0: e081 71be 28ad 7140 d70d 4abe 50ea a6be
000002e0: 780a a4bf f81f d7be a2e1 b2be e897 00c0
000002f0: f2dd f8bd 0bd4 91be 8a4d 2540 ebcc dcbf
00000300: 9d13 1c3f 6cc0 643b 90fb f2bc 7516 883f
00000310: da1e 753f d143 e0be 3799 bbbe f5ad 66be
00000320: 804b 993f fa81 dabe 5f41 ac3f 1c8f c2bf
00000330: f74f b8be d2cf dcbe b0c9 b2be 43e4 113d
00000340: a93e 1840 b077 a73f 6f92 f0bd 14e0 ecbe
00000350: f84f 23bf 799b 24be 09f3 1040 05f8 96be
00000360: 77f5 05be d20b 333d 0b05 f23e 0d3c 18bf
00000370: c061 95be 60cf 943b 46f9 99be ff57 c9be
00000380: bbeb c6be 937a bdbe d40d f03f c37c 99be
00000390: 08b2 adbe 8855 04c0 b521 91bd 5e30 83be
000003a0: 9849 0a40 02bd 51be 7a19 3240 a24f 2f3b
000003b0: 08fa 2640 c58e 84bf f46d 8c3f 09fa 2bbe
000003c0: 4399 aebd eb8b fcbe a8aa d9bd df68 503d
000003d0: 4585 b9be b482 8140 bc0b dfbe 1555 adbe
000003e0: 7a07 67bf b2e7 eabd a84f 0abe d520 00c0
000003f0: 109f 803d 1925 ddbe 884e f03f cc56 d2bf
0.7563396 0.022695871 -0.0492592 1.031202 0.97832555 -0.37336308 -0.31625187 -0.30946502
1.5559168 -0.29401985 1.2765307 -1.6587898 -0.44496492 -0.23939072 -0.25651643 -0.051309146
2.5010083 1.9767395 0.036407594 -0.4001376 -0.41126466 -0.3401203 2.2348 -0.24707459
-0.34979454 -0.039720792 0.29996008 -0.27518106 -0.23788358 -0.07748722 -0.34621784 -0.31392467
-0.38862863 -0.3529662 1.7272856 -0.24803056 -0.24752522 -1.7775962 0.108478755 -0.3683629
2.084577 -0.36687794 2.8358388 0.012268641 2.2464252 -0.76655704 -0.06270774 -0.37176162
-0.3865858 -0.2514685 0.12211706 -0.049557835 -0.20911472 3.8888648 -0.3754636 -0.37858322
-0.8652077 -0.16192347 -0.2643036 -2.1625948 0.040852055 -0.32130295 1.9159199 -1.7678424
1.0737184 -0.0035914879 -0.06358548 0.9713415 0.9444304 -0.40481934 -0.33174363 -0.20381637
2.0705109 -0.13536964 1.3034103 -1.6624658 -0.25316307 -0.16299714 -0.46320516 -0.039222598
2.7754674 2.5341206 0.07499686 -0.1824489 -0.15712166 -0.58232456 2.257209 -0.2742381
-0.542335 -0.012612141 0.26032367 -0.061286964 -0.2784772 0.055684503 -0.5620371 -0.47358832
-0.37732184 -0.36694542 1.8539846 -0.28420278 -0.39851826 -1.7715119 -0.0055011036 -0.36629307
1.9753312 -0.33776447 2.6239157 0.059394453 2.1140225 -0.42740434 -1.1129686 -0.44289976
-0.41102564 0.14504431 -0.090267465 0.08353646 -0.2565299 3.81444 -0.30822068 -0.27594423
-0.8208415 -0.23439582 -0.24119428 -2.1962843 -0.062055618 -0.42471296 1.8495017 -2.0224445
0.7963803 0.10867711 -0.05566594 0.99958533 1.1508245 -0.33785456 -0.23748752 -0.34648913
2.1537805 -0.15083762 0.99653864 -1.8773594 -0.24627179 -0.31569704 -0.38029858 0.09844599
2.894705 2.246612 0.071306475 -0.41086608 -0.3996068 -0.40143424 2.4106548 -0.2407919
-0.23856121 0.0060188216 0.5138563 -1.589356 -0.20759326 0.059871934 0.46296403 -0.37326956
-0.19645278 -0.13756709 1.7870107 -0.2782445 -0.30424783 -1.4016473 -0.08955003 -0.32792574
2.1149752 -0.24432729 1.8834028 -0.078256465 2.131674 -0.73423505 -0.69812995 -0.17762373
-0.2760016 -0.6807639 0.05830252 0.11237375 -0.235847 3.7761936 -0.19731842 -0.3260064
-1.2815695 -0.42016578 -0.3493777 -2.0092716 -0.12151708 -0.28482088 2.5828576 -1.7250036
0.6096743 0.0034904731 -0.02966097 1.0631853 0.957502 -0.4380174 -0.3664033 -0.22527297
1.1976166 -0.4267729 1.345745 -1.5199924 -0.35998508 -0.43127304 -0.349195 0.035618078
2.3788245 1.3083401 -0.1174668 -0.46264708 -0.637939 -0.16074933 2.2648337 -0.294861
-0.13081919 0.043712445 0.47269472 -0.5946663 -0.2917614 0.0045413226 -0.30072993 -0.39324948
-0.38851723 -0.3700758 1.875422 -0.29977998 -0.3392489 -2.0677204 -0.07086507 -0.2562284
2.1607418 -0.20482257 2.782805 0.0026750346 2.6090107 -1.035607 1.0971055 -0.167946
-0.08525326 -0.493255 -0.10628253 0.050881263 -0.3623449 4.047205 -0.4356364 -0.33853975
-0.90245783 -0.114699736 -0.13506949 -2.002004 0.06280339 -0.43192366 1.8773966 -1.6432738

bias f4 [4]
00000000: dea3 23bf 47d7 c4be 521b 8abe 8ff6 5fbf
-0.63921916 -0.38445494 -0.2697397 -0.87485594
