model/trained_net.pkl (torch, 76431 bytes, 7 tensors)

weight f4 [128, 8]
00000000: ad96 973d ebd0 d9ba 9e80 83bc 0468 29bc
00000010: 4d54 1a40 37ba 38bc fadc 0cbf 6278 793d
00000020: f32a b33e 7eb1 e73e 7275 b63d ca84 d23e
00000030: 0201 d53d 22f6 2fbf faae 68bf 221c 13be
00000040: b947 f73e ce6f 29be e2f7 d93e 559c debe
00000050: cdeb 37bf 14a9 71bf d7d7 bfbf 1299 0f3f
00000060: eeb9 a13d de77 abbd bb49 653e dae5 2b3d
00000070: b693 fa3c cac5 40bf b8d2 c1be 85eb 6c3f
00000080: 8730 d03c 4f3e c8bf 8460 253f 9084 d93e
00000090: 81c6 ea3e 900b 9d3e 2d6d 5a3f 466b 2cbd
000000a0: 7703 f6bf a36b 5bbd 1c85 0bbf 07f9 2abc
000000b0: 7554 b03e 086d b83a 3eda a73c 63d4 ef3c
000000c0: f059 773e 2b33 223f 80c6 89be 5300 d9bd
000000d0: b15f b5bf f635 dc3e 40e0 123f 45f7 20bd
000000e0: baeb 14be ba24 cdbf 7051 acbf 8d79 0240
000000f0: 477c 1cbf c3cf 5b3d c58d 183e f5a6 e1bc
00000100: b69e a5bd 5430 163f 6e8e 78bf 6c35 b7bd
00000110: 009c 6f3e 7a73 103f e784 613f 2993 a8be
00000120: 5235 443d 1b4d 103e 80ff d9bd a434 45bd
00000130: 7927 11bd 87cc 81bd aaf6 c43d b019 64be
00000140: 1fed 96be 0c18 813e 0bb7 0ebd 13dd 91be
00000150: 4cd7 0c3f 416c 183f 56a9 7ebf f688 aebe
00000160: 07a4 babc cf8a 313e f46d ca3c c373 f93e
00000170: 1410 e83e e446 913f d408 aa3b 8d03 ecbe
00000180: a3b3 d7be 1da5 1ebf 1c6d 03bf 2c21 f5bf
00000190: 591f 423e 18df 8f3e 3ea4 bb3e 9a0c 18be
000001a0: 2dc9 c63e 318c 903e f5ea c03e 495b de3e
000001b0: 0e55 58bf 7021 77bf d76b 9cbf b631 46bf
000001c0: 6903 6abd 578c c33d ead6 8fbf c975 3c3f
000001d0: e9ad 6b3f 7eea 663d 7270 733e 1bb4 373e
000001e0: 5cdb 193e 4370 463f df19 98bd aeb0 163e
000001f0: 6cc0 89bd 7d08 2fbe 9ed2 b3be b7df 393e
00000200: 56d8 89be ecb7 1d3e 1f52 4dbe 62db 813f
00000210: 0ed9 053e 2159 03be 32c1 59be e652 a8be
00000220: 3f5e 3cbe 8d2e ba3e a39c 063f ebc9 f6be
00000230: 2777 bf3e 2806 2a3e bd1a e2bc a5f7 8e3b
00000240: 9d92 b7be 84ff d23d ecfd df3d b4e5 ff3c
00000250: d6c0 29bf d69f 23be 1968 9d3e c939 2a3f
00000260: e475 27bf d362 fa3d 36bb bb3e 6c40 a5bd
00000270: 5ad5 acbf 3ac2 e3bd eaf5 643e a88a 20bc
00000280: f135 c63e e70d 50bb 4133 543d e3a4 edbe
00000290: 4c6e c2be 60a7 b7bd b63a 00bf a93c 03be
000002a0: cb68 a13f c4a0 113f 7a3c bb3e aa6c 053f
000002b0: 56c8 8a3e 9d92 663e 6707 fdbf e026 583f
000002c0: 9e4c 4a3e d5b4 1bbd 23a9 953e 7842 2cbf
000002d0: 8a9f 023e e02c 92be cd4c 063e 8863 e8bc
000002e0: b4e7 3b3e 6f8c 893d 132a 493f 4b58 acbe
000002f0: dba1 89be 67f9 8b3e 9f1e 80be 80dc b0bf
00000300: 96de b53c 2d4c c23e ffc4 75bf def5 c2bf
00000310: 0747 48bd cecd 943d 9a19 0d3d eb04 4f3c
00000320: ba54 c23e fcb6 053f 52a6 363e 970c cb3e
00000330: 818f ccbd 1a03 a3be 4c3f d7bd 2015 953e
00000340: 03f9 4b3f 0344 68be f52b e1bd 7311 49bf
00000350: 86a0 f93e a5df 803f bcb3 7dbf 9614 98be
00000360: 5fa4 89bd 4148 543e 7803 a6be efd0 c7bf
00000370: 0c52 0d3f 3fda 9bbe 36cf 9bbd d11e bd3c
00000380: b86d b5be 4f8d 1b3e 892f 8b3e 3197 523e
00000390: 1790 eabe 5762 fd3e c9f0 5c3e 5517 66bf
000003a0: 92d8 653e aa66 793e 4704 fdbd df73 493f
000003b0: bbd9 0c3f b9f1 2dbf 521b 8dbf a63a bcbe
000003c0: 985a 6bbf 9d5f 333f 6d29 26bc 6a07 cdbe
000003d0: 8df9 ef3e 2b65 803d aa6b 85bd 2139 66be
000003e0: 485c 4b3e bb2a 0cbe 8774 5abf 9a5a eb3e
000003f0: a0ea 14be be5b 53bf 2a64 64bd 8f52 d93e
0.07401786 -0.0016618049 -0.01605254 -0.010339741 2.4113953 -0.011274866 -0.55024683 0.06090582
0.34993705 0.45252603 0.0890912 0.41116935 0.10400583 -0.68734944 -0.90891993 -0.143662
0.48296908 -0.16546556 0.42571932 -0.43478647 -0.7184418 -0.9439862 -1.4987744 0.5609294
0.078967914 -0.08372472 0.22391407 0.04196725 0.030588012 -0.753018 -0.37856078 0.92546874
0.025413765 -1.5644015 0.64600396 0.4248395 0.4585457 0.30672884 0.8532284 -0.04209449
-1.9219807 -0.053569447 -0.54499984 -0.010435349 0.34439436 0.001407058 0.020489808 0.029276079
0.24155402 0.63359326 -0.26909256 -0.10595765 -1.4169828 0.4300992 0.5737343 -0.039298315
-0.14543048 -1.6026833 -1.3462353 2.0386689 -0.6112713 0.053664934 0.14897831 -0.027545432
-0.08086912 0.5866749 -0.9709233 -0.08945736 0.23399353 0.56426203 0.8809342 -0.32924774
0.047902413 0.14091913 -0.10644436 -0.048145905 -0.035438035 -0.063378386 0.0961736 -0.22275424
-0.29477784 0.2521366 -0.034842532 -0.2848898 0.55016017 0.5954018 -0.99477136 -0.34088868
-0.022783292 0.17338108 0.024710633 0.48721132 0.45324767 1.1349759 0.0051890407 -0.4609646
-0.4212924 -0.6197069 -0.5133836 -1.9150748 0.1895727 0.28099895 0.36648744 -0.14848557
0.3882536 0.28231958 0.37679258 0.4342902 -0.84504783 -0.96535397 -1.222041 -0.774196
-0.05713216 0.09548252 -1.1237462 0.73617226 0.9206224 0.056375973 0.23773363 0.17939799
0.15025085 0.7751505 -0.074268095 0.14715835 -0.06726155 -0.17093082 -0.35121626 0.18151747
-0.26922864 0.15402192 -0.20050858 1.0145075 0.13071081 -0.12826969 -0.21265104 -0.32875746
-0.18395327 0.3636364 0.5258276 -0.48200926 0.37395594 0.16603911 -0.02760064 0.0043630176
-0.35854045 0.10302642 0.10937104 0.03123746 -0.6630987 -0.15978941 0.30743483 0.66494423
-0.6541426 0.122258805 0.36666268 -0.08068928 -1.350261 -0.1112103 0.22359434 -0.009798683
0.3871303 -0.0031746568 0.051806692 -0.4641486 -0.37974775 -0.08967471 -0.50089586 -0.12816109
1.2610105 0.56885934 0.36569577 0.52118933 0.2710597 0.22516866 -1.9767884 0.8443432
0.1975579 -0.03801425 0.29230604 -0.67288923 0.12756172 -0.28549862 0.13115235 -0.028367773
0.18350106 0.06716239 0.78579825 -0.33661112 -0.26881298 0.27338716 -0.25023362 -1.3817291
0.022200864 0.37948743 -0.9600372 -1.5231283 -0.048895862 0.07265817 0.034448244 0.01263545
0.37955266 0.52232337 0.17836884 0.39658043 -0.09988309 -0.31838304 -0.1051012 0.2911768
0.79676837 -0.22682194 -0.10994712 -0.7854225 0.48755282 1.0068251 -0.9910238 -0.29703206
-0.067208044 0.20730688 -0.3242452 -1.5610636 0.5520332 -0.30439946 -0.07607882 0.023085983
-0.3543527 0.15190624 0.27184704 0.20565487 -0.45813057 0.4948909 0.21576227 -0.8987935
0.22445896 0.2435557 -0.123543315 0.7869243 0.5501973 -0.67946965 -1.1023962 -0.36763495
-0.9193511 0.7006777 -0.010141713 -0.4004472 0.4687008 0.06269296 -0.06514676 -0.2248273
0.19859421 -0.13688175 -0.85334057 0.4596756 -0.14542627 -0.8256186 -0.055759586 0.424458

bias f4 [128]
00000000: 1094 a1bb 5307 acbe 79b5 b2be 9b6d 7f3e
00000010: f155 cebe 781d a1bd 50ee d73e 4d8c 223e
00000020: 9675 a53e 1a64 3c3f ada6 22bf 722b 0c3f
00000030: aa2c 83bd a962 5c3e 17ff 03be e9c5 893f
00000040: 8cc3 8f3f c623 843e a52a 69be 4518 80be
00000050: 79c3 8a3e 98e0 403e 8132 9a3e 5950 003f
00000060: e6c8 d1ba e137 3c3f 4596 0dbf cce6 d73d
00000070: e254 94be 8459 d73c 9670 003f 60ad d8be
00000080: 00e7 103e 1615 65be e4b3 a73c 261b 083f
00000090: 5dd2 023c 6ce6 223f c28f bd3c 87ab ad3e
000000a0: 749f debd e9e8 03bf 8c63 9f3f 0023 1e3f
000000b0: 370b f2be 3ee5 e5ba f9c9 693e d21f 3b3f
000000c0: 72e7 92bf 8c98 c8be ffaa 5a3e 15c2 25bf
000000d0: 9915 ed3e 1305 5b3f 1f91 2f3f 4718 283f
000000e0: 131c d7be 9c63 3a3f 77e6 a83e ba63 183f
000000f0: 9100 13bf 113f 383f 67b0 163f de1e e43d
00000100: 9d4b 1dbf 8c1d 003f adea 283e d326 b03e
00000110: 3cbb d7bd 8c88 c93e 6984 46bf 036f 14bd
00000120: 9e94 e53e 8a17 22ba aa21 a43c efa3 d93e
00000130: c9b4 db3e 92dd 133f 60bc b4be f304 f23e
00000140: 2df2 c6be c5ec ef3e 32be 963d b39c ed3e
00000150: cdfd 0a3f c28f 8ebc a471 f43e 5732 85bf
00000160: bcc5 2e3f 5e7c 09be 9ff7 37bf 6d39 e13e
00000170: d3ab 24bf 934f d43e 3c51 5f3e 904c 9e3e
00000180: aeae 463f 6c26 66bf bdbc 893f 7c4e b63e
00000190: 86fb 323f b807 89bd d38e 003f 739e 483f
000001a0: d990 8d3d 85c9 0d3f 85b9 8c3e b71b b93e
000001b0: 51ab 6e3f b5c2 c63e 5c09 e13e 3c67 e13e
000001c0: 8e47 c03e 1752 583e e573 563e 2614 103f
000001d0: 97df ed3e 3a2b cdbe 49be 503f 53b9 ac3e
000001e0: 1d47 bc3e 05e8 4b3f 024f 48bd 542f 243f
000001f0: e5c2 e7be 4010 6c3d 53a3 c43e f0e5 b83e
-0.0049309805 -0.33599338 -0.34904078 0.24944155 -0.40299943 -0.07866949 0.42174006 0.15873833
0.32316273 0.7359024 -0.6353558 0.5475379 -0.06405003 0.21522011 -0.12890278 1.0763522
1.1231551 0.25808543 -0.22770174 -0.25018516 0.2710226 0.18835676 0.30116656 0.501226
-0.0016005307 0.73522764 -0.5530742 0.10542068 -0.2897101 0.026287802 0.5017179 -0.42319775
0.1415062 -0.22371325 0.02047152 0.53166425 0.007984725 0.63632846 0.023139838 0.33919927
-0.10870257 -0.5152727 1.2452254 0.61772156 -0.4727418 -0.0017539633 0.22830953 0.7309543
-1.1476882 -0.39178884 0.21354292 -0.6474927 0.4630554 0.8555462 0.6858081 0.65662044
-0.42013606 0.7280824 0.3298833 0.5952717 -0.5742274 0.7197123 0.5886292 0.111387
-0.614435 0.50045085 0.16495772 0.3440462 -0.10533759 0.3936199 -0.7754579 -0.03623868
0.44839948 -0.0006183317 0.020035584 0.42507884 0.42911366 0.57759964 -0.3529997 0.472694
-0.3885664 0.46860328 0.073604956 0.46408615 0.5429352 -0.017402533 0.4774295 -1.0405988
0.6827047 -0.13426349 -0.71862215 0.43989125 -0.6432468 0.4146696 0.21808332 0.30917788
0.7761029 -0.8990238 1.0760723 0.35606754 0.69915044 -0.06690925 0.5021793 0.78366774
0.06912393 0.5538562 0.2748529 0.36153957 0.9323016 0.38820425 0.43952453 0.44024074
0.37554592 0.21125065 0.20942648 0.56280744 0.46459648 -0.40072042 0.8154035 0.3373514
0.36773005 0.7965091 -0.048903473 0.64134717 -0.4526588 0.057632685 0.38405856 0.36112928

weight f4 [128, 128]
00000000: 26c0 023e 8dee 963f 5180 a3be b3af cfbd
00000010: c20f 98be a987 95be c0ee d03e a101 95be
00000020: 5cc8 59bf 2a1f d63d 6722 773e 5ee6 a5bf
00000030: 85cf 1b3e 1b98 f13e c2bd e03e a545 403d
00000040: bbbb d4bf 3df5 c63e a5ef b13d 7f88 ba3d
00000050: 6c67 a63d 8c0f ffbe 29c9 b13e dbd1 42be
00000060: 4a4c f83e 89e3 49be 3b04 76be f46f e6bd
00000070: ef6c fdbe cf07 bd3e 8524 fc3c 8828 13be
00000080: fa61 ab3d fc8a 553d 27b1 053e bd61 133f
00000090: 2c37 183f f238 b5be 3db9 163d 5b76 edbe
000000a0: 5168 d13d e6d0 703f 0fa1 adbe 97b9 be3e
000000b0: 672a 353f 04e6 01bf 9577 b33e a406 9c3d
000000c0: dc5e 76bf 3e56 4c3e d6ce bd3d 4fe1 583f
000000d0: 8d8c 74be c906 0cbf be76 2abe 6682 98bf
000000e0: d66c 30bf 78e2 e8be 7f36 853f e0e6 b33d
000000f0: ea10 d6bf 69d2 2f3e 5680 00bf 7561 62bf
00000100: 8684 0240 ad60 47bd fd30 093f 50b5 093f
00000110: ba51 c8bf b555 9bbf 73a8 d43f 3782 05bf
00000120: 0dff 81be 7949 043f 08aa 4fbf c4b1 93bd
00000130: 9be6 85be c842 213f f237 dfbf b59e ebbe
00000140: e067 c93e 7e23 2bbf ea6b f63d b456 29bf
00000150: efec dc3e 33a6 0dbf 76bf c4be 39f9 563f
00000160: 687c fbbe 2397 873f 1d03 b43e 2a08 39bf
00000170: e0af 983f d425 c2be 5ee7 a43e 69ae 503f
00000180: 2e88 c63e 3b3d fd3d afe1 91bf e704 61bd
00000190: 2e2e debe 6834 923e 1781 08bd 7e11 36bc
000001a0: f4d2 8dbe bf7f 333d 85ce 233e 0e66 913e
000001b0: f983 0dbd 1036 b23f 59bc c53e 1896 d6be
000001c0: 6c71 403c 300b e23e 7b6b e9be a3d9 3c3e
000001d0: ccb9 2dbe dacc 9f3f 30e5 fa3c 3e03 a6bf
000001e0: d89f 61bf ae25 3d3e 3c3b 363f c516 de3d
000001f0: e664 ec3e 5303 1abd 8036 b13d 551a 0d3f
00000200: e2a3 fb3d c6db 6dbe 7d7f b5be 1263 b7be
00000210: d696 a9bf 24b8 53bf d87c 6abd d76c f2be
00000220: 2f15 dc3c 276a c33e da84 a9be c798 91be
00000230: 68ad c4be ff2b c1be e516 adbe dc5c 323f
00000240: 47db 823e ff50 4b3e 0805 d0be b947 dd3e
00000250: 5fc4 063f ecad 24be 5740 9abd 2c0f 0cbe
00000260: a47a 323d e093 093f a6b4 00bf f437 5f3d
00000270: 5439 51be 22b7 e4be 6a03 f03e 838e 36be
00000280: e666 e2be db00 21bf a721 4f3e b77d 69be
00000290: 0191 b5bd 2064 7a3e a8cc 0ebf 2536 58be
000002a0: 0f7e f83c 4071 68bf 7626 443f d1be 123f
000002b0: 53d6 f9be f058 edbe 0e0a 34be e490 53be
000002c0: d6b0 bdbe d9ff e03d 0b7e 49be 751c 94bf
000002d0: 51c7 f7be ec89 dc3e 7b3e d03e f2a9 463f
000002e0: 22a8 03bf bd8d 413f d377 0bbc 66c3 b6be
000002f0: 742c 253f f038 003f d2f7 e13e c101 bf3e
00000300: 28d5 acbe 286e 0d3f cec4 cabc 0ee4 55be
00000310: 51ee 3cbd cff4 c8be 4651 27bf 3062 c2be
00000320: 95a4 953e 360d 363e 3b09 08be 99d7 3f3e
00000330: f7ff c03e dc09 f7be 92e3 a73d 9d64 ad3e
00000340: 7f2d 08bf 64bb 2bbf daee 4c3f 5167 95be
00000350: e958 aebe c7f7 8bbe 6258 1bbe 6f47 6cc0
00000360: 0b6b 133f 21d4 0dbf 3aa4 00bf b647 903e
00000370: abdc a3be d7c6 21be b111 e2be ff9e 74be
00000380: 7dbe b73d 3d18 c2bf bed6 ba3f d3bc aabe
00000390: fb06 c13e 6a52 00bf a0eb d7be 210d 023f
000003a0: b834 06bf 3135 1bbe ce26 2b3f 6f6a 30be
000003b0: 91b1 cc3e d74d 38bf a83d 86bd 68a0 32be
000003c0: 33b8 42be c37c 1d3e 46cd cb3e 9e45 9bbe
000003d0: 3995 cb3e 70f6 32bf 3a72 063f 48af 4a3d
000003e0: 58bd 653f 9ebf de3e bf09 50bf 4d6b b03d
000003f0: dedc e3be 7fbb 7fbf 54ae ffbd 64e2 423e
0.12768611 1.179155 -0.31933835 -0.10140934 -0.29699522 -0.29205063 0.40807152 -0.29102805
-0.8507135 0.10455163 0.24134217 -1.2960927 0.15215881 0.4718636 0.43894774 0.04694142
-1.6619791 0.38858977 0.08688287 0.09108066 0.08125195 -0.4981655 0.34723786 -0.19025366
0.48495704 -0.19715704 -0.24025051 -0.11251822 -0.49497172 0.3692002 0.030779133 -0.1437093
0.08368297 0.0521345 0.1305586 0.5757101 0.59459186 -0.35395008 0.03679775 -0.4637936
0.10224975 0.94068754 -0.3391194 0.3725097 0.70767826 -0.507416 0.3505217 0.07618454
-0.96238494 0.19954774 0.092679664 0.84718794 -0.23881741 -0.54697853 -0.16646859 -1.1914794
-0.6891607 -0.45485282 1.0407256 0.0878427 -1.6723912 0.17170109 -0.50195825 -0.8842996
2.0393386 -0.04867618 0.53590375 0.53792286 -1.5649941 -1.2135531 1.6613907 -0.5215182
-0.253899 0.5167461 -0.8111882 -0.072116405 -0.261525 0.62992525 -1.7438948 -0.4601952
0.39337063 -0.6685103 0.12032302 -0.66147923 0.43149516 -0.55331725 -0.38427323 0.83974034
-0.49118352 1.0592998 0.35158625 -0.7227808 1.1928673 -0.37919486 0.3220777 0.8151613
0.38775772 0.123651944 -1.1396998 -0.054936316 -0.43394607 0.28555608 -0.033326235 -0.011112569
-0.27700007 0.043823 0.1599675 0.28398174 -0.034549687 1.3922749 0.3862026 -0.41911387
0.011745792 0.4414916 -0.45589814 0.18442397 -0.16965407 1.2484391 0.030626863 -1.296974
-0.8813453 0.18471405 0.71184134 0.10844187 0.4617073 -0.037600826 0.08652973 0.55118304
0.122871175 -0.23228368 -0.35448828 -0.35817772 -1.3249156 -0.8270285 -0.057247967 -0.47348663
0.02686557 0.38166925 -0.3310917 -0.28436872 -0.38413548 -0.3772888 -0.3380653 0.6967294
0.2555792 0.19855116 -0.4062884 0.43218783 0.5264339 -0.16081971 -0.07531803 -0.13677663
0.04357399 0.53741264 -0.5027565 0.05449672 -0.20432025 -0.4467097 0.46877605 -0.17827801
-0.4421913 -0.6289193 0.20227681 -0.22801863 -0.08865548 0.24452257 -0.5578103 -0.21114404
0.030333547 -0.90797806 0.76621187 0.5732241 -0.4879633 -0.46356916 -0.1758196 -0.2066074
-0.37048978 0.10986299 -0.19676988 -1.1571184 -0.48394254 0.43073976 0.4067267 0.77603066
-0.51428425 0.756069 -0.008512455 -0.35695952 0.64520955 0.5008688 0.44134384 0.37306026
-0.33756375 0.5524621 -0.024752047 -0.20887777 -0.046125714 -0.39249274 -0.6535839 -0.37965536
0.2922713 0.17778477 -0.13284771 0.18734588 0.37695286 -0.4824971 0.081977025 0.33865824
-0.5319442 -0.6708281 0.8005196 -0.29180387 -0.34052208 -0.27337477 -0.15170434 -3.69186
0.5758521 -0.5540181 -0.5025059 0.2817971 -0.32004294 -0.15798508 -0.44154122 -0.23888777
0.0897188 -1.5163647 1.4596784 -0.33347186 0.37700638 -0.50125754 -0.42171955 0.50801283
-0.5242419 -0.1515701 0.66856086 -0.17228101 0.39979222 -0.71993774 -0.06554729 -0.17444003
-0.19015579 0.15379624 0.3980505 -0.3032655 0.39762285 -0.69907284 0.52518046 0.049483567
0.8974204 0.43505567 -0.8126487 0.08614216 -0.44504446 -0.9989547 -0.12484422 0.19031674

bias f4 [128]
00000000: e23e a53d 4144 693f aa1e 473d c82e 803e
00000010: 3e7c 1f3f 909f bb3d d8a5 c1bd 0c34 303e
00000020: 3e8a 433e 07f4 0c3f e50c 06bd 1211 e13d
00000030: 6721 c0bd 6e8d 363f 0a69 223e 5827 263c
00000040: a08b 593e caef 8a3e 10d2 933e fede 303e
00000050: 3c29 953e 4c52 103e 7072 423e 1cfc 833e
00000060: 1072 533f 526d 733d fc12 573e a87b 203e
00000070: 3093 f03d c7ea 3f3e 997e fc3d b032 fcbb
00000080: d525 9bbb d0f1 2dbe f77a 873e 7120 a03e
00000090: a6ba 853d 361d 7e3e 0608 2dbd 3354 2f3f
000000a0: cc51 a03d b87f 7f3e 4bad 07be 072b 873e
000000b0: 5d36 a73e 3acb 553d 5056 ec3d 44ae 733d
000000c0: 7722 b63d 6f50 9a3e 109e ef3e e290 bc3d
000000d0: 2514 613e 5dfa ff3d bfc0 62bd e82d 453e
000000e0: 72f0 923e 9d51 86be 9b1f 903d 683a 653e
000000f0: 1cfc 413e c58d 013e 347c cf3e 6779 b13c
00000100: 3720 943e 49c1 14bd d36a e1be 49b4 413e
00000110: 0b43 443e 1cca d6bd c482 9bbd 9e9e 343f
00000120: 15f6 02be 34a2 703d 20ce 5d3e f709 3d3e
00000130: cf9d 973e 7114 cdbc 1e0c a03e 6e67 c13d
00000140: cbf0 c4bd df14 203e 7619 1b3f d7e2 073e
00000150: 59d5 0f3e 4b81 993e 8fa7 993c 961e bf3e
00000160: d27a 673e bd73 933e 5d9a 763e 0e71 19be
00000170: f95b 813e d101 003e 4921 d43d 74dc ef3e
00000180: f57b e63e 03bd 133e bca8 a8bd 139c 263e
00000190: 59ea 14be e623 003f 7275 f5bd 2475 0f3e
000001a0: 0ee4 853e c2c2 dc3d 7a9a 69be b17a 233e
000001b0: 078a 10be 09bd 52be dc3b 1b3f 6f62 2f3e
000001c0: 2a14 4d3e e157 673e 8eb4 f3bc ad12 f0bd
000001d0: e568 f03d c9e6 a13e c50f 3dbd 276e 1e3e
000001e0: 1af0 893e d3c6 0d3e 264e babe 7008 083e
000001f0: 6535 9d3e d946 e73d 660a 813e 58fd 603e
0.080686346 0.9111977 0.048613228 0.2503569 0.62298954 0.091612935 -0.0945546 0.17207354
0.19095704 0.55059856 -0.03272714 0.10989584 -0.09381371 0.71309555 0.15860382 0.010141216
0.21244669 0.2713607 0.28871202 0.17272565 0.29133022 0.14093894 0.18988967 0.25778282
0.8259592 0.059430428 0.21003336 0.15672171 0.11746824 0.18741904 0.12328834 -0.007696472
-0.0047347345 -0.16986775 0.26461002 0.3127475 0.06529741 0.2481583 -0.04224398 0.6848785
0.078281015 0.24951065 -0.132497 0.26400015 0.32658663 0.052195765 0.115399 0.059492365
0.088932924 0.3013949 0.4680028 0.09207322 0.21980341 0.12498925 -0.0553596 0.19255793
0.2869907 -0.2623414 0.07037278 0.22385561 0.18943828 0.12651737 0.40524447 0.021664334
0.28930828 -0.036317144 -0.44026813 0.1891643 0.191662 -0.10487768 -0.07593301 0.7055453
-0.12789185 0.05874844 0.21660662 0.18460833 0.29612586 -0.025034161 0.31259245 0.09443556
-0.0961624 0.15632962 0.60585725 0.13270126 0.1404623 0.29981455 0.018756656 0.37328023
0.22605446 0.2879924 0.24082322 -0.14984533 0.25265482 0.12500693 0.10357911 0.4684788
0.45016447 0.14427571 -0.082353085 0.16270475 -0.14542522 0.50054777 -0.119852915 0.1400953
0.26150554 0.107793346 -0.22812834 0.15964772 -0.14115153 -0.20579924 0.60638213 0.17127393
0.20027223 0.22592117 -0.029749181 -0.11722312 0.11738757 0.31621388 -0.046157617 0.15471707
0.26940995 0.13845377 -0.36387748 0.13284469 0.307048 0.1129281 0.25203246 0.21971643

weight f4 [1, 128]
00000000: 7197 27c0 f0b9 cb3f 555d 43be 3b94 4dbf
00000010: 33be c13f 35d1 acbe 8843 3a3d 1d9b b5be
00000020: 7c34 9dbe 56b0 d03f 1bb6 48c0 8775 a0be
00000030: eb07 3540 caa7 c53f 7a55 91be 200b e0be
00000040: 9e93 06be 36eb edbf 4c11 24be e9bf 6bbe
00000050: fcd4 0dbf a9d6 88be 4786 dfbe 7671 93be
00000060: 93d8 c33f 0206 2240 3a04 b3be ce2f a3be
00000070: 4d34 6a3f b0eb 8ebe 9eda 17be 3fa2 953c
00000080: 42b7 903d 2b09 a83f 9701 78be 6c77 393f
00000090: ac42 6a40 658a 7140 e9ea d5bc 7c09 b63f
000000a0: 0427 3340 83f4 46be 7472 23c0 09b5 61be
000000b0: 80bc c2be bb81 4a3f 1b3e adbf e3f5 7c40
000000c0: 8524 6ebe af63 c3be 850f c03f 3825 4bbe
000000d0: b5ea 1c40 7449 bdbe 3c91 8cbf e2a8 73be
000000e0: 824f b5be b199 0e40 f6f6 4040 c3cd 0240
000000f0: 9311 72bf 9a07 a4be 7f88 60bf 4c15 433d
00000100: a345 ffbe f5a5 713f 1f01 2640 9122 d2be
00000110: 3b95 81be c0fe 3040 390a 8a3d 3b0c cf3f
00000120: 944a 0d40 ab7e 953f 0bc5 34bf 1ed1 5240
00000130: 958a abbf f233 3a3c 96bc b83f 1d24 09bf
00000140: 81c7 683f 6715 cbbe 9dcd d43f 81a6 59be
00000150: c28a 21be 541a 92bf 3e0b 773f 8a5b 36bf
00000160: b195 b1be 2597 3c3f 384d 6bbe 6292 4d3f
00000170: 5616 84be 9a7b 35bf 74da 49be c17a cfbf
00000180: 9c04 1a40 d750 1040 ed74 08c0 cc2c 5540
00000190: 504c 1840 262c dc3f f470 37c0 074e 6cbe
000001a0: 9469 9fbe 470e c0be f23e 9d3f 5c0d c1be
000001b0: 2978 a13e 786a e4bf 7ef9 ba3f ada9 89be
000001c0: e748 69bf 2ac7 6dbe c01b 9abf 6968 5a3f
000001d0: 021f d7be b2dd 3bbe ab51 98bb ed8f b2be
000001e0: 81da c4be b4f1 63bc 8cd7 53c0 3338 c3be
000001f0: 1a7d d5be a9a3 b1be 88d8 7ebe 6682 a6be
-2.6186182 1.5916119 -0.19078572 -0.80304307 1.5136169 -0.33753362 0.04547456 -0.35469905
-0.30704105 1.6303813 -3.1361148 -0.31339666 2.8286083 1.544183 -0.28385526 -0.43758488
-0.13142249 -1.8587406 -0.16022223 -0.23022427 -0.55403113 -0.26726273 -0.43657133 -0.287975
1.5300468 2.5316167 -0.34964162 -0.3187241 0.91486055 -0.2791419 -0.1482949 0.018265842
0.07066204 1.3127798 -0.24219356 0.7244785 3.6603193 3.774072 -0.02611299 1.4221644
2.7992563 -0.19429211 -2.5538607 -0.22041716 -0.3803444 0.79104203 -1.3534578 3.9525077
-0.23256119 -0.3816199 1.5004736 -0.19838417 2.4518254 -0.36970103 -1.0981822 -0.23794892
-0.35412222 2.2281306 3.0150733 2.0438087 -0.94558066 -0.3203705 -0.87708277 0.047627732
-0.49857816 0.94393855 2.5938184 -0.41041997 -0.25309166 2.7655487 0.06740231 1.6175607
2.207677 1.1679281 -0.70613164 3.2940135 -1.3401667 0.011364924 1.4432552 -0.5357073
0.9092942 -0.39664766 1.6625248 -0.21254922 -0.15775588 -1.1414285 0.9650153 -0.7123343
-0.34684518 0.7366813 -0.22978675 0.8030149 -0.2579829 -0.70891726 -0.1971224 -1.6209337
2.4065313 2.254934 -2.1321366 3.3308592 2.3796577 1.7200973 -2.866269 -0.2307664
-0.31135237 -0.37510893 1.2284834 -0.37705505 0.31536987 -1.7844992 1.4607389 -0.26887265
-0.91126865 -0.23220506 -1.2039719 0.8531557 -0.42015845 -0.18346289 -0.0046484075 -0.34875432
-0.38447955 -0.013912607 -3.310031 -0.38128814 -0.41697007 -0.34695175 -0.24887288 -0.3252136

weight f4 [4, 128]
00000000: cd16 cebf e265 083f 3280 a53d 7368 363b
00000010: 7274 893f dfb3 d83a c718 b0bd 3b27 44bf
00000020: a0f2 e0bb d4a8 673f 8fb5 a1bf e85a 093e
00000030: 0cca be3f 729b 1b3f 543d 5bbe f333 d9be
00000040: c437 1c3d 0c12 97bf a86a 40bd 0ae8 933c
00000050: b2af 18bd e7e8 b73d 4bda 6abe 1ee7 273e
00000060: b2ae dd3e c36d 8e3f 3e5e 3a3d 46b3 343e
00000070: eaae c93e c05a 26bd 42de 38bc a4a3 a1bc
00000080: c16f 6ebb d51d 8f3f 280c 5e3d 55d9 203f
00000090: e88f 7a3f 02f7 2940 995c 933d 16e0 053f
000000a0: 5c57 693f 382b a9bd e1b7 14c0 7b37 27be
000000b0: 5fff 3bbd d1d3 293f c537 f3be 187a 0840
000000c0: 94c2 863d 20a9 063c 6f9d 333f ff80 3d3e
000000d0: 371d 753f 22bf 66be 1742 3ebf 6af0 25bd
000000e0: c2c3 f7bd 2edf 743f 2775 7c3f 0e4c 8e3f
000000f0: b32b 81bf f64d a23c 7bb8 4ebe 8399 54bd
00000100: f0b2 203e e7f9 0a3f c9cf 3840 84d4 4ebe
00000110: 5663 c23d dd96 a23f a7cd 34bd ad52 033f
00000120: bbe7 4c3f c5ba 153f b87b 3a3d 678a a33f
00000130: a2ef 3bbf 4335 2d3d 2f31 233f 7aa4 14bf
00000140: 2ddc 2b3f 1e88 453d 6f19 2a3f b395 d73d
00000150: fe0f 393e f493 5cbe 5655 1d3f 2a2b fdba
00000160: 0725 1cbe d3a8 173f 3bd0 3e3e 8536 0d3f
00000170: d027 2b3d 9f71 99bd d14f 11bb 6951 52bf
00000180: 8a75 fb3e c7d7 9b3f c541 84bf ed9b 8f3f
00000190: 2c20 de3e 315c 6f3f c125 4bbf 732d dc3d
000001a0: 68f9 193b 9dff 33be ab6a fb3e 85f7 5bbe
000001b0: 9260 483f 6ffc 95bf 9804 4e3f 5333 173e
000001c0: 1543 c1be f2c0 043d 222e 1dbf 319e 4e3f
000001d0: f390 4dbe 298b 1c3e 5df7 e53c 72b3 e63d
000001e0: 1955 18be 17c1 11be 5246 b5bf e0fd b8bc
000001f0: 289d 143d 9441 ffbd 3bcb f63b ee1f 213e
00000200: 5fcf 5abf e02d 313f f5e6 063e d5a9 9bbe
00000210: 708a 603f 48e0 9d3d 13b7 833b 4801 91bf
00000220: 3ef5 dabd a459 263f 94c8 fbbe df5e c03c
00000230: b77a c83f e149 0b3f 109f d63d 43ca a53c
00000240: 2d49 dabd 3dfb 65bf 4f3d 3abd a56f 59be
00000250: 389b 6d3e fcdf 263d 6217 2e3e 1eef 103f
00000260: a62f 073f e96b 953f 8748 e1bd b511 973d
00000270: 994a 9e3e 6b28 16be 761f c4bd 198c bfbd
00000280: 8854 1cbd 03c0 cd3f 3d48 78bd b39e f13e
00000290: 6f88 d43f 4c3f b43f 1e51 6d3d b9ed 1e3f
000002a0: 179d 473f f55a 6b3e 6ca4 5cc0 1c86 6d3e
000002b0: 0878 24be ec28 173f eef7 b1be 9e99 0540
000002c0: 219b de3d d499 143d a4b4 913f ffa1 8f3c
000002d0: e708 663f 5021 39bd 0d6d 08bf 8d98 c43d
000002e0: 50ef dbbc b0b4 703f eb30 373f c951 333f
000002f0: cc95 54be 86bf 173b 95ee 61be f507 b23d
00000300: eb98 98bf 0bef 483f fb00 0f40 bfe6 7ebc
00000310: 4ea7 e6bd d3a9 9b3f 6d78 3e3d 8465 3f3f
00000320: 3f3b 2e3f 779b bd3f 3e0e b43e e332 9d3f
00000330: ee86 97bf 1b6c 39bd 47ea 1f3f 66ac 4abf
00000340: 1aef 0d3f 9e1d 3a3d 2a8b 283f d9e6 143e
00000350: 6101 293d a9ec 2bbf 8688 a03f 974b 4fbe
00000360: 471a c6bd 7e02 f83e be43 b53b 99bb 023f
00000370: 0bef d6bd 024d 3dbf e765 3fbd 67f7 e8be
00000380: f638 043f 2607 ea3f 19ab 77bf 0f72 913e
00000390: ce2d 173f c6aa 1d3f dd24 bdbf 8bb3 743d
000003a0: 83d4 cbbc 3dbd dcbe 7e1d 5c3f cb55 0bbf
000003b0: e528 e3bd bd73 a1bf 05ec 823f fc3a 0cbe
000003c0: 8662 ffbe 2bfc dcbd 39c2 8dbd bf77 383f
000003d0: d15e 1dbf 0de9 9bbd f180 a6bd aedd 78bd
000003e0: 14b5 ad3e 3d55 1f3e a2bf e3bf b941 3f3e
000003f0: 8608 e2be 4d88 803d 10ca 503e 8123 13bc
-1.6100708 0.5328046 0.08081092 0.0027833253 1.0738661 0.0016533098 -0.08598476 -0.7662236
-0.0068648607 0.90491986 -1.2633532 0.13413584 1.490541 0.60784066 -0.21410114 -0.42422447
0.03813912 -1.1802382 -0.046976715 0.01805498 -0.03727693 0.089799695 -0.22934835 0.16396758
0.43297344 1.1127247 0.045500033 0.17646512 0.3939126 -0.04061389 -0.011283459 -0.01973135
-0.0036382528 1.1180979 0.05421081 0.6283162 0.97875834 2.6557012 0.07195396 0.52295053
0.91148925 -0.082601964 -2.323723 -0.16329758 -0.045897838 0.6633883 -0.47503486 2.132452
0.065800816 0.0082190335 0.701621 0.1850624 0.95747703 -0.22533849 -0.74319595 -0.04051248
-0.12097885 0.95653045 0.9861626 1.111696 -1.0091461 0.019812565 -0.20187561 -0.051904213
0.15693259 0.5428757 2.8876822 -0.20198256 0.09491603 1.270229 -0.044141438 0.5129803
0.8004109 0.5848811 0.045528144 1.2776612 -0.73412526 0.042287122 0.63746923 -0.5806347
0.67132837 0.048225515 0.6644506 0.105266 0.18072507 -0.21540815 0.6145834 -0.0019315232
-0.152485 0.5924198 0.18634121 0.55161315 0.041786015 -0.07492375 -0.0022172818 -0.8215547
0.49113113 1.2175225 -1.0332571 1.121946 0.4338392 0.9350005 -0.7935448 0.10750856
0.0023494605 -0.17577977 0.4910482 -0.2148114 0.78272355 -1.1717662 0.8047576 0.14765672
-0.37746492 0.03241057 -0.6139852 0.8071013 -0.20074825 0.1528746 0.028072054 0.11264695
-0.14876212 -0.14233814 -1.4162085 -0.022581995 0.03628269 -0.1246368 0.007531551 0.15734836
-0.85472673 0.69210625 0.1317404 -0.3040301 0.8771124 0.07708794 0.004019627 -1.1328516
-0.106913075 0.6498053 -0.49176466 0.023482738 1.566245 0.54409605 0.104795575 0.020238047
-0.106584884 -0.89836484 -0.045468625 -0.21233995 0.23203743 0.040740952 0.17001107 0.56614864
0.5280708 1.1673557 -0.110001616 0.07376424 0.30916288 -0.14663856 -0.09576313 -0.093528934
-0.038166553 1.6074222 -0.060615767 0.4719139 1.6604136 1.4081817 0.057938688 0.62081486
0.77974075 0.22983916 -3.4475355 0.2319569 -0.16061413 0.59046817 -0.34759468 2.087501
0.10869432 0.036279514 1.1383252 0.0175333 0.89857334 -0.045197785 -0.532914 0.09599409
-0.026847512 0.9402571 0.7155902 0.7004667 -0.20760268 0.0023154928 -0.22063668 0.08692924
-1.1921667 0.7848975 2.2344348 -0.015557944 -0.112623796 1.2161201 0.046501566 0.74764276
0.6805915 1.4813069 0.35167116 1.2281154 -1.1838052 -0.045269113 0.62466854 -0.7916931
0.55442965 0.0454384 0.6583735 0.14541186 0.04126108 -0.6715799 1.2541664 -0.20243679
-0.09672981 0.484394 0.005531757 0.510675 -0.104948126 -0.7394563 -0.04672804 -0.45501253
0.51649415 1.8283432 -0.9674545 0.28407332 0.5905427 0.61588705 -1.4776875 0.059741538
-0.024881607 -0.43113127 0.859825 -0.54427785 -0.110917844 -1.2613446 1.0228277 -0.13694376
-0.49879855 -0.10790285 -0.06921811 0.7205772 -0.61472803 -0.0761281 -0.08130062 -0.060758285
0.33927214 0.1555986 -1.7792857 0.18677415 -0.44147128 0.06275997 0.2038958 -0.008980633

bias f4 [4]
00000000: 1010 c6b9 4988 42be 5731 553e 4876 533d
-0.0003777747 -0.18997301 0.20819603 0.051626474
