trained_net.pkl (torch, 75287 bytes, 6 tensors)

weight f4 [128, 8]
1.4684108 0.50054 -1.0539569 0.5552746 -0.51917684 0.7678674 -0.29233655 -0.042209648
2.3338141 -0.124142244 0.44478545 -0.8552843 -1.4126576 -0.08633351 -0.009901256 -0.029082023
0.42502296 0.5675272 0.27545556 -1.4033799 0.1559047 0.08557411 -0.9621051 -0.78936225
-0.49797386 -0.9301585 0.67652273 -0.80027336 -0.108831525 -0.6335003 -1.7064097 -0.36649716
-1.3972676 0.31982782 -1.0632981 0.6749486 -0.62160796 -1.691329 -0.6489346 0.51370335
1.1976027 -0.8387705 0.000958227 -1.039772 -1.4113219 -0.70522195 0.734822 -0.74013025
-0.034978185 -0.040607654 -0.032966603 -0.006906296 2.1522849 -0.4000964 1.5916387 0.007147829
0.35736886 -1.5297283 1.3430501 -0.90549845 -1.4671685 -0.19097966 0.6845227 -0.053505905
0.63575435 0.5320088 1.5679939 -0.00736145 1.8506657 -0.26688626 -1.8587835 0.7369029
-0.16346607 0.38280594 0.61703646 -0.88784736 0.09981412 -0.049817756 -0.9876078 0.7870949
0.61139333 1.037798 0.32437024 -0.45911062 -2.041483 -0.76690215 -1.207898 -0.16855474
-0.027656864 -7.437538e-05 0.8802352 -2.3931725 0.14557232 -0.11991912 0.25840247 -1.1133235
0.011953821 0.1348447 -0.0022899692 0.3700453 -0.77361697 -0.4376105 -0.0041620433 -0.038457055
0.8559044 0.51513666 -0.34461698 0.80143774 0.38773012 0.726601 1.2436485 -0.7566162
0.4269219 0.043660406 -1.0228404 -1.2615036 -1.0925142 -0.004048626 0.08198096 -0.25844562
-2.7208471 0.0032547973 -0.3976791 0.21810627 0.815672 0.57240355 -0.13939433 0.2921005
-1.560074 0.8699494 0.9811325 -0.73733896 0.031294145 -0.09854128 0.13763875 0.6330516
0.011166709 -4.159311 -0.26929832 -0.715361 0.8754572 -1.6262059 -0.17737453 -0.36845297
-1.4250746 -0.8020661 -0.61564314 -0.41130152 -0.15399532 -0.32583076 0.19629557 0.10963316
-1.061726 -2.1425374 1.9947809 -1.2131304 -0.08755027 2.3358564 -0.06894313 -1.2901539
-0.47825176 -0.59908247 0.36430788 0.51874137 1.0380046 -0.06611316 -0.018520268 -0.26799193
0.6049217 -0.77592343 -0.032203667 0.5968847 1.6177973 -1.1390193 0.28240365 -0.4404801
0.26178956 0.55972135 0.9570105 0.6720093 0.042730566 -0.45155635 0.43980142 -1.079692
1.6332732 0.23621394 0.0013643748 -0.6731932 0.39602342 0.64467067 0.021154767 0.31027305
-1.4532957 -0.7263375 1.0791317 0.22534868 0.7989301 -1.2408646 -0.57578033 0.09487143
0.05263126 0.22915885 1.5440211 -0.03115788 -0.2678005 1.6429454 -0.9058851 -0.20718352
-0.8389716 1.0925008 1.1494865 -0.9644173 -0.419749 0.28822106 -0.43796915 -1.280687
-0.3588763 -1.3506248 0.65044963 -0.9363826 0.44021899 -0.97076875 0.0842183 0.24820071
-0.84540564 -1.213295 0.4766903 0.03489485 1.2019883 1.070497 1.1698546 0.36974388
0.77340966 -4.1781926 -0.20563675 0.20240784 0.47553036 -0.7908304 -1.095384 0.46386537
-1.096933 -0.083328955 0.620584 -1.3326418 0.21548063 -0.42642596 -2.7509563 0.1554187
0.09407949 0.14875911 0.8141293 0.62191105 -0.51572245 0.51132673 0.58533573 0.024789257
00000000: e3f4 bb3f 6423 003f 0fe8 86bf 7a26 0e3f
00000010: c6e8 04bf f592 443f 23ad 95be 06e4 2cbd
00000020: 365d 1540 4a3e febd ebba e33e e9f3 5abf
00000030: f7d1 b4bf a0cf b0bd e138 22bc 6c3d eebc
00000040: 9c9c d93e 7649 113f 8308 8d3e f4a1 b3bf
00000050: 7ba5 1f3e 7b41 af3d 854c 76bf a513 4abf
00000060: 6ef6 febe de1e 6ebf 9830 2d3f b7de 4cbf
00000070: 10e3 debd 132d 22bf a26b dabf 84a5 bbbe
00000080: aad9 b2bf 79c0 a33e 271a 88bf 6ec9 2c3f
00000090: b321 1fbf 787d d8bf 9420 26bf 1082 033f
000000a0: 0c4b 993f aab9 56bf 8731 7b3a 4017 85bf
000000b0: 32a6 b4bf 6d89 34bf 4b1d 3c3f 2d79 3dbf
000000c0: 4945 0fbd 3654 26bd fd07 07bd 364e e2bb
000000d0: 09bf 0940 6fd9 ccbe d1ba cb3f 5638 ea3b
000000e0: 0df9 b63e 23ce c3bf 11e9 ab3f bfce 67bf
000000f0: 2dcc bbbf 2c90 43be e13c 2f3f 0229 5bbd
00000100: ccc0 223f bb31 083f 06b4 c83f 5238 f1bb
00000110: 9de2 ec3f 51a5 88be 9eec edbf aba5 3c3f
00000120: a663 27be 24ff c33e 1af6 1d3f f749 63bf
00000130: 586b cc3d b40d 4cbd ddd3 7cbf 0d7f 493f
00000140: 4684 1c3f 91d6 843f db13 a63e 8c10 ebbe
00000150: a8a7 02c0 b353 44bf 679c 9abf 9d99 2cbe
00000160: a690 e2bc faf9 9bb8 1857 613f bd29 19c0
00000170: e910 153e 2898 f5bd 544d 843e 6281 8ebf
00000180: f6d9 433c bb14 0a3e 4f13 16bb 9476 bd3e
00000190: c30b 46bf 7c0e e0be c061 88bb 2585 1dbd
000001a0: 8d1c 5b3f ffdf 033f a371 b0be 062b 4d3f
000001b0: 9084 c63e 8602 3a3f e02f 9f3f 99b1 41bf
000001c0: 8295 da3e 41d5 323d 6fec 82bf f378 a1bf
000001d0: 81d7 8bbf 56aa 84bb a2e5 a73d fc52 84be
000001e0: 5c22 2ec0 704e 553b 989c cbbe 4057 5f3e
000001f0: e1cf 503f 0a89 123f 63bd 0ebe 328e 953e
00000200: 81b0 c7bf 01b5 5e3f 802b 7b3f 3fc2 3cbf
00000210: 4a2e 003d 03d0 c9bd 2cf1 0c3e ab0f 223f
00000220: 92f4 363c 1319 85c0 78e1 89be e621 37bf
00000230: f71d 603f 8427 d0bf aba1 35be dea5 bcbe
00000240: d868 b6bf 3454 4dbf ca9a 1dbf 1d96 d2be
00000250: f3b0 1dbe 4ad3 a6be b501 493e 5a87 e03d
00000260: a3e6 87bf 551f 09c0 fb54 ff3f db47 9bbf
00000270: 8e4d b3bd ac7e 1540 0e32 8dbd c323 a5bf
00000280: 6add f4be 785d 19bf 9086 ba3e 3ccc 043f
00000290: 56dd 843f 5666 87bd d1b7 97bc 3d36 89be
000002a0: 26dc 1a3f eba2 46bf fee7 03bd 70cd 183f
000002b0: fb13 cf3f 62cb 91bf 3697 903e 9c86 e1be
000002c0: 4809 863e e649 0f3f a4fe 743f cd08 2c3f
000002d0: 3f06 2f3d 6532 e7be a72d e13e 5933 8abf
000002e0: 190f d13f 11e2 713e d2d4 b23a 6456 2cbf
000002f0: 95c3 ca3e 2309 253f c34c ad3c 1cdc 9e3e
00000300: 9805 babf 41f1 39bf fd20 8a3f cec1 663e
00000310: af86 4c3f a7d4 9ebf 5766 13bf f44b c23d
00000320: e093 573d 9ea8 6a3e 7ca2 c53f cf3e ffbc
00000330: 261d 89be 094c d23f 16e8 67bf eb27 54be
00000340: d8c6 56bf 11d7 8b3f 6022 933f 0de4 76bf
00000350: 57e9 d6be b691 933e 7e3d e0be 8ded a3bf
00000360: a2be b7be 46e1 acbf de83 263f c5b6 6fbf
00000370: 6264 e13e 4d84 78bf a57a ac3d 5428 7e3e
00000380: 816c 58bf 404d 9bbf c010 f43e e7ed 0e3d
00000390: c1da 993f 0c06 893f ccbd 953f 124f bd3e
000003a0: 2dfe 453f c1b3 85c0 7192 52be 0044 4f3e
000003b0: b778 f33e dc73 4abf 8b35 8cbf c37f ed3e
000003c0: 4d68 8cbf 5fa8 aabd 98de 1e3f 0294 aabf
000003d0: f4a6 5c3e 8154 dabe ab0f 30c0 1426 1f3e
000003e0: bfac c03d 4f54 183e c76a 503f 9035 1f3f
000003f0: 6306 04bf 4fe6 023f 90d8 153f d712 cb3c

bias f4 [128]
0.5350918 -0.10328323 -0.17198344 0.06319232 0.11660918 -0.26521942 -0.010774208 -0.19644515
-0.57585925 -0.27028832 -0.15730783 -0.023743702 1.0017356 -0.8859804 -0.16436407 -0.12865956
-0.46055287 0.30198762 0.31670663 -0.8052777 0.8935245 -0.9463607 1.0017953 -0.98689127
0.20276694 -0.2354249 -1.0176611 -0.49722356 -0.7101165 0.19282769 0.0830826 -0.13747314
-0.030014813 -0.12123627 0.04450894 0.34848076 0.024844063 -0.849518 0.40289563 1.0226766
-0.26197353 0.019127686 0.27749982 0.021346388 -0.017621027 -1.5630594 -0.18525235 0.4021358
1.4014446 -1.6934791 -0.11380846 -0.6235607 -0.015034089 -0.9891954 -0.06882758 0.7457577
1.23526 0.13317633 0.5923846 -0.3167054 0.26101112 -0.8834416 0.9274505 -1.0604744
0.876287 0.2647335 0.92816466 -0.5092202 1.0580935 0.46923292 0.59599817 0.5021535
-0.28779122 -0.3867587 -1.5110375 0.98301107 -0.11817696 -0.73458666 0.06651775 1.1215491
-0.037701674 0.26290545 0.4552865 0.012073716 0.8053958 0.5164685 -0.64998174 -0.4959193
0.8497953 -0.99879503 -0.06173427 -0.88876 -0.043137725 -1.0885271 -0.24225472 0.57734036
1.0115749 -0.84284556 0.2052496 -0.48183033 -0.4002169 0.6405759 -0.058607794 -0.016575204
-0.12061889 0.4713527 -1.3152906 0.7226937 -0.49402022 -0.9008518 0.5305856 0.55032325
0.43003342 0.519527 0.27390712 -0.10365967 0.7214891 0.61285156 0.5473193 -1.0316367
-0.45622647 0.4623084 -0.11786509 0.5092962 0.640496 -0.2920544 -0.9048939 -0.0044832015
00000000: c7fb 083f 2886 d3bd 6d1c 30be fa6a 813d
00000010: cbd0 ee3d d7ca 87be 4e86 30bc eb28 49be
00000020: 836b 13bf 3b63 8abe 4e15 21be 2782 c2bc
00000030: df38 803f 9dcf 62bf 0e4f 28be 55bf 03be
00000040: 96cd ebbe 1f9e 9a3e 5f27 a23e ae26 4ebf
00000050: 06be 643f b244 72bf d43a 803f e8a4 7cbf
00000060: 23a2 4f3e 3a13 71be b842 82bf 1694 febe
00000070: 32ca 35bf 9f74 453e 3627 aa3d c2c5 0cbe
00000080: a0e1 f5bc b94a f8bd 024f 363d 126c b23e
00000090: c785 cb3c 037a 59bf 5648 ce3e 11e7 823f
000000a0: 6521 86be aab1 9c3c 7514 8e3e 9fde ae3c
000000b0: f959 90bc 5512 c8bf cbb2 3dbe bee4 cd3e
000000c0: 8962 b33f ecc3 d8bf 6914 e9bd ada1 1fbf
000000d0: 8a51 76bc e93b 7dbf 79f5 8cbd fae9 3e3f
000000e0: 001d 9e3f 605f 083e 84a6 173f 3627 a2be
000000f0: 40a3 853e 3b29 62bf 656d 6d3f a0bd 87bf
00000100: 5854 603f 268b 873e 339c 6d3f 415c 02bf
00000110: 9c6f 873f 4c3f f03e 5693 183f 228d 003f
00000120: 5f59 93be 3c05 c6be ad69 c1bf 9da6 7b3f
00000130: c306 f2bd df0d 3cbf 753a 883d ec8e 8f3f
00000140: 126d 1abd 8b9b 863e 501b e93e d6d0 453c
00000150: 6b2e 4e3f 4837 043f 3465 26bf 22e9 fdbe
00000160: 2f8c 593f 08b1 7fbf 13dd 7cbd c685 63bf
00000170: 2fb1 30bd db54 8bbf 9f11 78be 94cc 133f
00000180: 497b 813f bac4 57bf f32c 523e 77b2 f6be
00000190: 3be9 ccbe c8fc 233f ba0e 70bd b9c8 87bc
000001a0: 0907 f7bd 2455 f13e 715b a8bf 7402 393f
000001b0: 38f0 fcbe 399e 66bf 75d4 073f fce1 0c3f
000001c0: 572d dc3e b9ff 043f 8e3d 8c3e 854b d4bd
000001d0: 82b3 383f d7e3 1c3f 1e1d 0c3f ac0c 84bf
000001e0: 8496 e9be b0b3 ec3e 4163 f1bd 3c61 023f
000001f0: 8cf7 233f 2888 95be 20a7 67bf d2e7 92bb

weight f4 [128, 128]
-0.36434343 -2.4040406 0.44298506 0.18937948 -0.71238905 -0.43025416 -0.7432724 -1.099838
0.8391262 -1.9173546 -1.3900236 -3.1021128 -1.0482526 -1.818673 1.3935679 0.3059331
-0.5816485 0.9917945 0.33529377 -0.8077919 0.8815061 -1.0670792 -1.0999349 -0.09719462
2.6284769 -0.19206707 -2.2296154 2.6682708 0.8973845 -0.5953316 0.87847614 -0.58912975
0.3763863 0.8173293 -1.2180296 1.3426353 0.29916155 0.33466682 -0.3685486 -0.00791213
-1.2788011 0.5195177 0.41706765 0.84179837 -0.64009243 -1.6842301 -0.123630345 -4.9827056
-0.33484855 -3.3082354 -0.537954 0.6732834 -1.9330585 1.1221079 1.0042928 -1.289037
0.8867659 -0.7860651 -0.49805725 -0.003377374 -0.18992306 1.3614986 0.22780873 1.3424716
-2.434108 -0.5127705 -3.1397598 -0.77866554 -0.008047995 -0.0885552 2.4703043 -1.0695606
-0.12385976 0.7457274 -0.0024072353 -1.0897048 -3.0256019 0.59465706 1.3187008 -0.63004625
-1.0914026 0.5800496 0.77730185 -0.904328 -1.1732812 0.17129697 1.0530077 -0.31900164
-1.7916116 -1.4163015 0.24811153 3.3386626 -0.83457994 1.9357477 0.2754056 -1.0455391
-1.205151 1.0716069 -0.09991886 -1.7456248 1.4209615 -0.19217639 1.254395 1.4492549
-0.80288017 0.21785587 1.9022689 -0.66586053 -0.55131143 0.3584432 -0.34871808 1.9984521
-4.7159786 -1.0827917 0.20123748 1.6778159 0.34683803 -0.8936965 1.4364783 1.9509796
-3.1263132 0.032076392 0.54648066 -0.17377469 -0.39716548 1.2185998 -0.53415644 -3.2631695
0.6737201 -1.1694491 0.34309646 0.25615895 -0.6565973 -0.73976266 1.0101209 -0.8589482
0.38469443 0.41356128 0.104245044 0.6095383 0.08640013 -0.6755405 0.032376043 -0.70983934
-0.11935366 0.61640316 -0.54592586 0.351908 0.5427314 0.47450808 0.5198484 0.26949412
0.336096 -0.09317703 0.7680222 -0.16704611 -2.1333857 1.2206476 0.6266586 -0.52235466
0.2912355 0.23766372 -0.72560805 0.5785345 0.09226139 -1.3680807 -0.5706569 0.72741735
-1.121064 0.40186143 -0.50770813 0.37910482 1.0328825 0.7884287 -0.8765922 0.07227522
0.41245323 -1.44042 -1.1363095 -0.92255485 0.511334 0.025785724 -1.1022874 0.12169217
0.46410576 -0.49205035 0.4243309 -0.30566716 -0.7855315 -0.85427517 0.51045954 -0.8335286
0.6336293 0.24771887 0.31565872 0.4965511 0.13536881 -0.028963344 0.3114875 1.359102
-1.5357715 0.0340487 0.58720595 0.04556228 0.4696596 -0.5223938 -0.05239289 0.7651185
0.888127 0.031179003 -0.06890417 1.766578 0.6040478 0.4273733 -0.92837244 -0.07253439
-0.45053193 -0.56411076 -0.42960855 -1.2834483 0.262749 -1.3948871 -0.44989356 0.5187636
0.72816384 -1.474137 0.57469094 -0.78499794 -1.2643285 0.6842591 -1.4168705 1.6537719
-0.055209313 0.62645406 -2.5392063 0.65509707 0.69162256 0.18734753 0.8301227 -0.6716191
-0.32907638 0.57091 -0.51550084 -0.16478287 -0.06840351 -0.5146209 0.21728964 0.64692175
1.4883116 0.5321636 0.46410534 0.6833448 0.19893305 -0.12898521 0.24933057 1.0927968
00000000: 398b babe cddb 19c0 f0ce e23e b2ec 413e
00000010: 215f 36bf 464a dcbe 1a47 3ebf 7ec7 8cbf
00000020: fad0 563f e06b f5bf 4bec b1bf 0489 46c0
00000030: 242d 86bf 47ca e8bf 6f60 b23f 43a3 9c3e
00000040: ebe6 14bf 3fe6 7d3f a0ab ab3e 73cb 4ebf
00000050: 62aa 613f 0d96 88bf abca 8cbf f90d c7bd
00000060: f738 2840 3bad 44be 05b2 0ec0 f3c4 2a40
00000070: feba 653f a767 18bf d0e3 603f 35d1 16bf
00000080: b5b5 c03e 7e3c 513f 65e8 9bbf 79db ab3f
00000090: b42b 993e 7359 ab3e 67b2 bcbe e1a1 01bc
000000a0: c1af a3bf 1dff 043f e489 d53e 1980 573f
000000b0: 19dd 23bf da94 d7bf e831 fdbd 5372 9fc0
000000c0: 4571 abbe 21ba 53c0 5ab7 09bf 4d5c 2c3f
000000d0: 766e f7bf 3ba1 8f3f ab8c 803f 2aff a4bf
000000e0: 1703 633f 903b 49bf 5c01 ffbe ef56 5dbb
000000f0: 317b 42be 9645 ae3f b146 693e 1cd6 ab3f
00000100: 6dc8 1bc0 ed44 03bf d3f1 48c0 a056 47bf
00000110: bddb 03bc 6e5c b5bd 7719 1e40 5de7 88bf
00000120: 30aa fdbd fee7 3e3f b5c2 1dbb 727b 8bbf
00000130: 76a3 41c0 723b 183f 30cb a83f b64a 21bf
00000140: 15b3 8bbf 217e 143f 41fd 463f 0a82 67bf
00000150: 142e 96bf 7968 2f3e f5c8 863f 2f54 a3be
00000160: 8753 e5bf 5e49 b5bf f310 7e3e a6ac 5540
00000170: 08a7 55bf 95c6 f73f f601 8d3e 3ad4 85bf
00000180: 6342 9abf 6a2a 893f 42a2 ccbd a270 dfbf
00000190: 11e2 b53f e3c9 44be 0490 a03f 2f81 b93f
000001a0: 8e89 4dbf 9c15 5f3e 8c7d f33f d675 2abf
000001b0: bf22 0dbf de85 b73e 2d8b b2be 47cd ff3f
000001c0: 4ce9 96c0 eb98 8abf 3311 4e3e acc2 d63f
000001d0: c194 b13e 4bc9 64bf 85de b73f b3b9 f93f
000001e0: 8415 48c0 8962 033d 28e6 0b3f fef1 31be
000001f0: 4659 cbbe 14fb 9b3f 7abe 08bf c5d7 50c0
00000200: ec78 2c3f 82b0 95bf 57aa af3e 4427 833e
00000210: c316 28bf 1661 3dbf a44b 813f 07e4 5bbf
00000220: abf6 c43e 4ebe d33e 6d7e d53d b40a 1c3f
00000230: 8df2 b03d 39f0 2cbf be9c 043d 08b8 35bf
00000240: b16f f4bd 99cc 1d3f ccc1 0bbf 492d b43e
00000250: 72f0 0a3f b9f2 f23e c914 053f 22fb 893e
00000260: c614 ac3e 99d3 bebd 1a9d 443f 230e 2bbe
00000270: 6489 08c0 2e3e 9c3f b36c 203f 09b9 05bf
00000280: d21c 953e 1e5e 733e 73c1 39bf d61a 143f
00000290: 8af3 bc3d 451d afbf 9216 12bf 0638 3a3f
000002a0: 067f 8fbf c8c0 cd3e 29f9 01bf 071a c23e
000002b0: 7e35 843f 77d6 493f 5968 60bf 0805 943d
000002c0: 122d d33e af5f b8bf 9772 91bf 8e2c 6cbf
000002d0: c9e6 023f 953c d33c c117 8dbf bf39 f93d
000002e0: 459f ed3e 06ee fbbe e641 d93e 6880 9cbe
000002f0: 9818 49bf c7b1 5abf 7aad 023f 2162 55bf
00000300: 8835 223f 04aa 7d3e 059e a13e f23b fe3e
00000310: 1f9e 0a3e 8944 edbc 4a7b 9f3e 0ef7 ad3f
00000320: 2994 c4bf a676 0b3d 2153 163f 839f 3a3d
00000330: 3977 f03e 9abb 05bf ed99 56bd cede 433f
00000340: 4b5c 633f 1c6b ff3c a11d 8dbd 3a1f e23f
00000350: e0a2 1a3f acd0 da3e d1a9 6dbf e98c 94bd
00000360: 1fac e6be 9069 10bf a7f5 dbbe 0948 a4bf
00000370: 0987 863e a98b b2bf 7358 e6be b1cd 043f
00000380: f268 3a3f 85b0 bcbf f21e 133f a0f5 48bf
00000390: 84d5 a1bf 9b2b 2f3f 035c b5bf ccae d33f
000003a0: 2923 62bd 4b5f 203f 5b82 22c0 71b4 273f
000003b0: 2d0e 313f 08d8 3f3e ec82 543f 3bef 2bbf
000003c0: b37c a8be 2827 123f ddf7 03bf d7bc 28be
000003d0: 2417 8cbd 32be 03bf 2d81 5e3e aa9c 253f
000003e0: ff80 be3f e03b 083f 379f ed3e afef 2e3f
000003f0: 1bb5 4b3e b314 04be 8350 7f3e c4e0 8b3f

bias f4 [128]
-0.16585214 0.85854447 -0.08151204 0.24627058 -0.6021052 0.2047117 -1.3006967 0.18277322
-0.07749898 -0.43369246 0.9223053 -0.09319285 0.1426479 0.42438862 -0.02833151 -0.061217155
-0.03786198 0.011393107 -0.40468952 0.045626618 0.198463 -0.22471505 0.008403846 0.1272034
0.21716692 0.17020173 0.19906141 0.26169267 -0.14354952 -0.5823074 -0.02064826 -0.0048525925
-0.033149574 0.29106292 0.34999776 0.11068652 -0.016122865 0.08336787 0.024621086 -0.23344277
0.013604928 -0.052647144 -0.13423982 -0.07150565 0.0012701709 0.38164133 -0.09095189 -0.11039424
0.026751941 0.60346043 1.2386919 -0.06966962 0.37667754 0.15253729 -0.47959468 0.029303193
-0.18695554 -0.075147554 -0.04434151 -0.119648255 0.098722145 1.0728936 0.9464737 -0.33810362
0.015145573 -0.03498506 0.008003567 0.2674433 0.3381974 0.16311365 -0.049377915 -0.002679072
0.72036135 0.29558375 -0.07099667 -0.065118045 -0.77763593 -0.10784323 -0.88173926 -0.17980257
-0.21221896 0.12972102 0.08672699 -0.03554383 0.1004939 -0.07295735 0.15761276 0.015287965
0.5090158 -0.12685858 -0.11647319 -0.2838967 -0.10040333 1.0440564 0.07812225 -0.048607055
0.055161733 -0.19248839 -0.17330024 0.5667772 -0.03338362 0.20256966 -0.02408482 -0.8005063
0.28983584 -0.030869925 -0.9104508 0.025457412 0.22318588 -0.5945716 -0.01269746 -0.013552194
-0.50550085 0.534893 0.369945 -0.5466602 0.020913186 -0.07016235 -0.41363856 -0.07596192
-0.041474078 -0.005214801 0.42320818 0.13948789 0.40340024 -0.14733742 0.2680881 -0.078616254
00000000: 25d5 29be 92c9 5b3f c9ef a6bd 5b2e 7c3e
00000010: 9123 1abf f29f 513e 3b7d a6bf e728 3b3e
00000020: c9b7 9ebd f00c debe 331c 6c3f e5db bebd
00000030: 4b12 123e 7749 d93e 7c17 e8bc d7be 7abd
00000040: 2a15 1bbd 27aa 3a3c 7733 cfbe fae2 3a3d
00000050: e239 4b3e b41b 66be 49b0 093c 9c41 023e
00000060: 0161 5e3e 5d49 2e3e c1d6 4b3e 95fc 853e
00000070: a5fe 12be 1912 15bf 8a26 a9bc 7f02 9fbb
00000080: d9c7 07bd 3306 953e e832 b33e 9daf e23d
00000090: 1914 84bc c6bc aa3d 29b2 c93c 9f0b 6fbe
000000a0: 34e7 5e3c 88a4 57bd 2a76 09be 8e71 92bd
000000b0: dd7b a63a 7e66 c33e fc44 babd 6016 e2bd
000000c0: e326 db3c 627c 1a3f 758d 9e3f f2ae 8ebd
000000d0: e1db c03e bc32 1c3e 6f8d f5be 400d f03c
000000e0: 4671 3fbe f6e6 99bd 719f 35bd 250a f5bd
000000f0: d62e ca3d 9454 893f 1a4c 723f eb1b adbe
00000100: 2325 783c 7f4c 0fbd 6521 033c 54ee 883e
00000110: 3628 ad3e 4407 273e 7f40 4abd 5f93 2fbb
00000120: 9a69 383f c156 973e b466 91bd 9c5c 85bd
00000130: 2613 47bf e9dc dcbd aab9 61bf 2a1e 38be
00000140: ed4f 59be 96d5 043e ec9d b13d 6896 11bd
00000150: bfcf cd3d aa6a 95bd 3d65 213e 5f7a 7a3c
00000160: dc4e 023f 37e7 01be 7f89 eebd e95a 91be
00000170: 43a0 cdbd a4a3 853f 8ffe 9f3d 3118 47bd
00000180: 45f1 613d ad1b 45be 9e75 31be 5018 113f
00000190: 43bd 08bd 6c6e 4f3e 874d c5bc fbed 4cbf
000001a0: 5d65 943e ede2 fcbc 4e13 69bf 108c d03c
000001b0: d78a 643e d835 18bf 0209 50bc 060a 5ebc
000001c0: 8168 01bf bfee 083f 6e69 bd3e ecf1 0bbf
000001d0: 2152 ab3c 47b1 8fbd 6fc8 d3be ec91 9bbd
000001e0: b9e0 29bd ece0 aabb beae d83e ead5 0e3e
000001f0: 7a8a ce3e 9fdf 16be d842 893e 8f01 a1bd

weight f4 [4, 128]
-1.3516341 0.59532386 -0.061688606 0.16527037 1.8633868 -2.402281 2.0742316 -1.0434942
-1.2821956 -1.0781287 1.0029613 -0.069821976 -2.1188352 -0.25092706 -0.04341215 -0.004580632
0.051143367 -1.492611 -1.0334725 0.02950291 -0.82223004 0.31843078 -0.06362899 0.095754325
-1.0478079 -3.325413 -0.47251108 -0.31783104 1.4960998 2.5326269 0.022820557 -0.00783549
0.053909037 -0.7565225 -0.81361634 -0.72336215 -0.9912114 -1.1139759 0.035002206 0.22802654
-0.0337033 -0.050657548 -0.02813155 0.020926407 0.0361705 -0.7926136 0.06554809 -0.033432852
0.055281248 1.5497652 1.5942662 0.011221758 -1.2153301 -0.79238003 -0.8896219 0.057264064
-0.6020545 0.039128434 0.02614728 -0.067964785 -0.9789532 1.2434397 1.2318304 -0.30330852
-0.06288026 1.0235052 0.07902435 -0.88136816 1.3282312 -1.0252708 -0.0248639 0.028819801
-0.6093303 -0.7422333 -0.04480927 0.20301098 2.134807 -0.012141632 0.9205863 1.3155061
0.4851088 0.029465865 -0.3510287 -1.4756842 -0.5630387 -0.009878165 -1.3365554 -0.10816014
-0.81078494 0.011792014 -0.055965487 0.26014638 -0.08454773 1.6313376 0.55603343 0.96451646
0.015537583 0.008140901 -0.12301517 0.32558793 0.9549301 0.93338376 -0.004257029 1.6601545
-0.34177136 0.027157335 1.1749713 0.033779062 -0.88672197 -0.97930217 0.006697419 0.0122015765
0.31245726 -0.36648923 -0.32154173 2.519919 -0.0024583216 0.020380475 0.69618094 -0.07298375
0.005967523 0.061401993 -1.1333746 -1.5082628 0.024355112 -0.14409065 -0.5735686 -0.0022227522
-1.1134956 0.6225028 -0.006603396 -1.2429242 1.9061017 -2.3163166 1.936864 -0.84013826
-1.0001856 -0.90583813 1.2415138 -0.025932873 0.44161063 -1.1337867 0.054599047 0.088970676
-0.0449426 -1.4326816 -1.4415419 -0.09263224 -1.0166941 1.4364874 0.049409002 -0.16085076
-0.87863505 1.9167098 -0.7697446 -0.6845293 1.1738445 2.0952215 -0.06877708 0.022490643
-0.08024951 0.72666353 -0.8444448 -1.8407463 -0.9654631 -1.0801243 -0.009554589 -0.03993263
-0.065142006 0.01829541 0.025840329 -0.085644886 -0.08036314 -0.3685881 0.021744687 -0.087284565
-0.08674684 1.2166489 1.731257 0.004330557 -0.28110418 -0.83801234 -0.65271556 0.10992665
-0.6571472 0.05747912 -0.020150978 -0.069153346 -0.979194 1.0770727 1.3965439 -0.44912294
0.064409845 0.500211 -0.0039087883 -1.1819352 1.2041003 -1.0554653 0.056704342 -0.05749425
-0.68982863 -0.8598948 0.06575132 0.31158873 1.1087192 -0.031652056 1.0418253 1.3707958
-0.04031425 0.3656744 -0.1373672 -0.5004896 -0.679423 0.008855221 -1.2382416 0.030970994
-0.8767611 -0.07011758 -0.06784201 -2.306936 -0.07334099 1.4517227 -0.016179394 0.73490393
0.02375708 -0.6895727 0.0325169 0.33793458 0.85033786 0.3790868 -0.020661313 1.6175624
-0.7837642 -0.0487447 1.2275733 -0.07973899 -0.9513655 -0.81214976 -0.030953962 -0.052876543
-1.5447834 -0.47549775 -0.3320395 2.3911998 -0.061436426 0.02848777 -0.079116 -0.01975151
-0.13269496 0.05174024 -1.1903135 1.2963701 -0.12063255 0.40922877 -0.4866313 1.4240953
00000000: 5902 adbf 2567 183f 31ad 7cbd a33c 293e
00000010: 7583 ee3f f9be 19c0 36c0 0440 3891 85bf
00000020: fc1e a4bf 1f00 8abf 0961 803f d3fe 8ebd
00000030: ff9a 07c0 8379 80be f0d0 31bd 2019 96bb
00000040: b57b 513d e10d bfbf d448 84bf 16b0 f13c
00000050: ab7d 52bf 5c09 a33e ea4f 82bd d81a c43d
00000060: 921e 86bf 91d3 54c0 f9ec f1be c0ba a2be
00000070: 3380 bf3f 8f16 2240 2df2 ba3c 6d60 00bc
00000080: b9cf 5c3d 75ab 41bf 2949 50bf 432e 39bf
00000090: 08c0 7dbf c396 8ebf 795e 0f3d ca7f 693e
000000a0: 790c 0abd 4a7e 4fbd 2374 e6bc db6d ab3c
000000b0: 8527 143d bae8 4abf 143e 863d e3f0 08bd
000000c0: 976e 623d b55e c63f ea10 cc3f 77db 373c
000000d0: f08f 9bbf 6bd9 4abf 43be 63bf b98d 6a3d
000000e0: 3e20 1abf 2345 203d d232 d63c 1f31 8bbd
000000f0: ad9c 7abf 0829 9f3f 9eac 9d3f 414b 9bbe
00000100: 5ec7 80bd 3802 833f 85d7 a13d 58a1 61bf
00000110: 7b03 aa3f 133c 83bf 61af cbbc 8117 ec3c
00000120: 12fd 1bbf 0003 3ebf ed89 37bd 1ce2 4f3e
00000130: aea0 0840 b2ed 46bc 8bab 6b3f 8162 a83f
00000140: 2e60 f83e 6662 f13c 09ba b3be 38e3 bcbf
00000150: 4e23 10bf 07d8 21bc 3f14 abbf 1083 ddbd
00000160: 9a8f 4fbf 4b33 413c 113c 65bd e831 853e
00000170: 5c27 adbd accf d03f 3558 0e3f 8dea 763f
00000180: 5991 7e3c 6a61 053c 61ef fbbd 76b3 a63e
00000190: 4d76 743f 3df2 6e3f 8c7e 8bbb f17f d43f
000001a0: a8fc aebe 0f79 de3c 7665 963f ea5b 0a3d
000001b0: 3600 63bf 8cb3 7abf 0676 db3b 1fe9 473c
000001c0: 66fa 9f3e 7aa4 bbbe 1ea1 a4be 5a46 2140
000001d0: cb1b 21bb f4f4 a63c ea38 323f 8178 95bd
000001e0: 368b c33b a880 7b3d 6b12 91bf c10e c1bf
000001f0: 5f84 c73c 808c 13be 64d5 12bf 98ab 11bb
00000200: 0687 8ebf 585c 1f3f 4d61 d8bb 2418 9fbf
00000210: 24fb f33f 883e 14c0 29eb f73f 4d13 57bf
00000220: 1506 80bf 02e5 67bf ede9 9e3f 2d71 d4bc
00000230: ca1a e23e ec1f 91bf 40a3 5f3d 4236 b63d
00000240: bb15 38bd 1c62 b7bf 7284 b8bf f9b5 bdbd
00000250: 0823 82bf d2de b73f 1861 4a3d 10b6 24be
00000260: 3aee 60bf bf56 f53f fb0d 45bf 503d 2fbf
00000270: 8940 963f 1c18 0640 ffda 8cbd 4c3e b83c
00000280: db59 a4bd 9f06 3a3f 892d 58bf 939d ebbf
00000290: 9728 77bf 8341 8abf da8a 1cbc 6690 23bd
000002a0: 2c69 85bd 41e0 953c 19af d33c 9666 afbd
000002b0: 6e95 a4bd 94b7 bcbe ea21 b23c 40c2 b2bd
000002c0: 54a8 b1bd 27bb 9b3f d499 dd3f 58e7 8d3b
000002d0: e3ec 8fbe fa87 56bf 5e18 27bf 3921 e13d
000002e0: cd3a 28bf 3a6f 6b3d aa13 a5bc 45a0 8dbd
000002f0: 75ac 7abf 85dd 893f f3c1 b23f 71f3 e5be
00000300: 4fe9 833d d40d 003f 4b15 80bb a749 97bf
00000310: f51f 9a3f 7d19 87bf d042 683d 177f 6bbd
00000320: 9c98 30bf 1122 5cbf a1a8 863d 8f88 9f3e
00000330: 83ea 8d3f 96a5 01bd 885a 853f 3d76 af3f
00000340: 8e20 25bd ad39 bb3e fda9 0cbe 1620 00bf
00000350: aaee 2dbf 7d15 113c b37e 9ebf e2b6 fd3c
00000360: 6a73 60bf ce99 8fbd c0f0 8abd d7a4 13c0
00000370: cd33 96bd 0dd2 b93f a68a 84bc aa22 3c3f
00000380: 359e c23c d687 30bf 7130 053d c305 ad3e
00000390: beaf 593f aa17 c23e ea41 a9bc 490c cf3f
000003a0: c5a4 48bf 86a8 47bd 1f21 9d3f 324e a3bd
000003b0: b08c 73bf 0ce9 4fbf 2a93 fdbc 1395 58bd
000003c0: 76bb c5bf 7174 f3be 1501 aabe 6b09 1940
000003d0: c3a4 7bbd 2f5f e93c 9207 a2bd ebcd a1bc
000003e0: 30e1 07be 93ed 533d 315c 98bf 75ef a53f
000003f0: 330e f7bd 6f86 d13e bd27 f9be c148 b63f

bias f4 [4]
0.88612133 0.4285228 0.55390275 1.2609574
00000000: d9d8 623f 5767 db3e 92cc 0d3f 0d67 a13f
